models/autoencoder2.pt (torch, 615937 bytes, 12 tensors)

encoder.0.weight f4 [12, 3, 4, 4]
000000 7f 5b 10 be 5e ec cc 3d d2 14 01 bc 01 c6 49 bd
       -0.14097403 0.10006021 -0.007878499 -0.049261097
000010 1e 26 bc 3d 0b 3c 7c bc b2 17 08 bd ae 43 03 3d
       0.09186958 -0.015395175 -0.033225723 0.032046966
000020 ed f9 71 3c f3 c3 9e bd 7a 59 d4 bd 7c 31 8b bc
       0.01476906 -0.07752218 -0.10368629 -0.01699137
000030 a0 ef 6c bd 07 5d 8d 3d 25 c2 1b bc 57 dc a2 bd
       -0.05784571 0.06902509 -0.009506737 -0.07952183
000040 d6 f4 68 3d 6f 75 f7 bd 43 21 02 3b 18 2d 62 bd
       0.05687412 -0.120829456 0.0019856251 -0.055218786
000050 a0 d1 e2 3b 56 5e 54 bd 7b 81 f6 bd 67 be d6 bd
       0.006921962 -0.05184778 -0.12036415 -0.10485535
000060 63 80 ec 3d 6e 6d 84 3d 14 07 9d 3c 9f 6b 39 bd
       0.11547925 0.064661846 0.019168414 -0.04526865
000070 0b 15 fa bd cc 8e 9c 3d bc 98 ea bd d4 1f f4 3d
       -0.12211045 0.07644424 -0.11454913 0.11920133
000080 9b 6b 57 ba a3 cd 1c 3d 71 c3 62 bd 06 94 d9 bd
       -0.00082176336 0.038282048 -0.05536217 -0.10623936
000090 87 9e 92 3d 1d 9f 37 bd ca 43 dc bc c5 52 f2 3d
       0.07159143 -0.044829477 -0.026887793 0.11832193
0000a0 3d d3 99 bd 2d 12 c7 bd 6c 6e 30 be 4b 2a 6b 3d
       -0.07510994 -0.09720264 -0.17229623 0.05741338
0000b0 eb 8b 0b be d4 b9 6d bc 49 fb 9a bc 2c 98 95 3d
       -0.13627593 -0.014509637 -0.01891865 0.07304415
0000c0 25 dd a2 3d 5f 2e d4 3d c2 6e 81 3d 65 8e 41 bd
       0.07952336 0.10360407 0.063199535 -0.04725494
0000d0 12 95 29 be 83 6d 89 bd e1 60 69 bd 5e c8 e2 bd
       -0.16560772 -0.06710341 -0.056977157 -0.11073373
0000e0 c7 07 dd 3c 37 55 d7 3d 1e b2 05 bd 1c f9 71 3d
       0.026981248 0.105143 -0.03264057 0.05907546
0000f0 09 e8 34 3d dc 7b 7b bc 87 14 9f 3d b5 28 15 be
       0.0441666 -0.015349355 0.07767587 -0.1456631
000100 0c 49 92 bc 3a 5f d1 bd 77 20 a3 bd 88 10 9c bd
       -0.017857097 -0.10223241 -0.079651766 -0.076203406
000110 ef 89 ed bc 28 2e 46 3d cc c8 2a bd e6 e4 8d bd
       -0.028996436 0.04838386 -0.0416954 -0.069284245
000120 e7 b4 3d 3d 89 78 ad 3d 0d 0f f4 3d 75 87 ec bc
       0.0463151 0.08470256 0.11916933 -0.028873185
000130 f6 fb 2b be 97 82 18 be b9 e7 82 3d 59 29 3f be
       -0.16795334 -0.14893566 0.06391854 -0.18668117
000140 b2 ff c1 bb b8 58 ac bd 46 c7 7a 3d d3 4c e2 3d
       -0.005920374 -0.08415359 0.0612252 0.11049809
000150 3f 20 ab bd 56 30 18 3d 91 7c 09 3e a9 7e 5b 3d
       -0.0835576 0.03715547 0.13426425 0.05358759
000160 b1 a5 08 3e c5 f7 f1 3d a4 94 2d 3b 22 b7 09 3d
       0.13344456 0.118148364 0.0026486302 0.033621915
000170 4e 9c 75 bd 6a 7b 5a 3d e8 c6 7a 3d fd 14 a5 bd
       -0.059963517 0.053340353 0.061224848 -0.08060644
000180 d2 59 1f be 48 3b 2d bd 40 29 8e bd 32 b4 6a 3d
       -0.15561607 -0.042292863 -0.069414616 0.057300754
000190 61 eb 29 b9 02 a6 2e 3c 96 f0 eb 3c 74 d2 5d be
       -0.00016204781 0.0106596965 0.028801244 -0.21662313
0001a0 fb 72 89 be 4a f9 d3 3d 67 58 d4 3d 51 f6 e7 bd
       -0.26845536 0.103502825 0.10368424 -0.11326278
0001b0 23 57 65 b9 83 1f 3a bd 01 16 f7 bd 85 9c df 3d
       -0.00021871603 -0.04544021 -0.12064744 0.109185256
0001c0 35 a5 8a bd c7 2a a1 bd 3d 85 c8 bd b6 cc f8 3c
       -0.06769792 -0.07869487 -0.09791038 0.030371051
0001d0 e9 10 b5 bd 6b d3 30 3e fe 7f 95 3c 2d d3 83 bc
       -0.08841116 0.1726815 0.018249508 -0.016091907
0001e0 b9 a6 0a be a8 bc 2b bc 6b 75 b3 bc a6 8a 4a be
       -0.13540162 -0.010481991 -0.021906575 -0.19779453
0001f0 81 d9 10 3c e2 63 b8 bd fd 7e f1 bd 96 12 9e 3b
       0.0088409195 -0.09003426 -0.11791799 0.004823993
000200 5b d4 8d 3d 54 f9 d4 bd 14 6c 32 be b1 0b 00 bd
       0.06925269 -0.10399118 -0.17424041 -0.03126115
000210 7d 91 02 be c0 8e a8 bd 5d 68 57 3d 6e 65 fd bc
       -0.12750812 -0.082303524 0.052589763 -0.030932155
000220 f1 3c 74 3d 32 10 5a 3d cf a2 1f 3d f6 2e bb bd
       0.05962843 0.0532381 0.038973626 -0.091398165
000230 92 dc 4f 3c cc 67 17 be f9 e4 fa bd 49 c7 52 3d
       0.012686865 -0.14785689 -0.12250704 0.051459584
000240 c8 a8 8a bd d9 86 b8 bd f0 bd 53 bd 77 67 42 3c
       -0.06770474 -0.09010095 -0.05169481 0.011865488
000250 31 70 d9 3c ca 0d be bd 5b 3f 32 bd d2 3b 6b 3c
       0.026542755 -0.09279974 -0.04351745 0.014357524
000260 4c f0 2b 3e 76 be 6b bd 98 69 ee 3d 81 fc 35 3b
       0.16790885 -0.057554685 0.11641234 0.0027768912
000270 a1 dd 03 3d bc 15 6f bd 79 7e 99 bd 2f f7 3f bc
       0.032193784 -0.058370337 -0.07494826 -0.011716648
000280 6d 0a ec 3d d3 73 0e 3e b1 26 a7 3d b1 c2 cb bc
       0.11525426 0.13911371 0.08161677 -0.02487311
000290 c9 9e 8a 3d c8 1a fd 3c da 37 51 bd 8b 44 e8 3d
       0.06768567 0.03089656 -0.051078655 0.113411985
0002a0 bb 06 a3 bd 47 5c 21 3e eb 8a ee 3d ec 7d 97 3d
       -0.07960268 0.15757857 0.1164759 0.073970646
0002b0 1d 09 4b 3d d0 0e eb bc 20 ec 2f bd 10 1a e8 bc
       0.049569238 -0.028693587 -0.042949796 -0.02833274
0002c0 cd 3d 91 bc 9e cd 08 be 7a 5f 64 3d 10 a7 a5 bd
       -0.017729664 -0.13359687 0.055755116 -0.08088505
0002d0 d4 7c 28 be 0c 2b 50 bd 20 e1 a4 3d 4a 09 14 be
       -0.16453868 -0.050822303 0.08050752 -0.14456668
0002e0 b4 84 1e 3c 1a d9 07 3d 8e e5 0e bd ac 12 fc bc
       0.009675194 0.03316603 -0.03488689 -0.030770622
0002f0 70 31 0b be 29 22 e8 3d a8 0d 5d 3d 5c 71 2d bc
       -0.13593078 0.113346405 0.0539681 -0.010586109
000300 46 6a f5 bc 12 60 5f bd bd d4 69 bd 83 dc 04 3d
       -0.029957902 -0.05453498 -0.05708765 0.03243686
000310 8d 4e 3f 3d 56 45 11 3c 77 b9 ab bd 58 e7 0c bd
       0.04670577 0.008866629 -0.08384984 -0.034400314
000320 24 67 02 bd 4f d6 77 bd b1 5c e5 3d 83 0e 3a 3d
       -0.031836644 -0.060507115 0.1119932 0.045423996
000330 24 4a 18 3c 6a 3f 40 bd db 60 a6 3b 92 6a af 3d
       0.00929502 -0.046935476 0.005077464 0.085652485
000340 e6 af af bc f8 08 90 3c d3 88 88 3c 4d da 00 be
       -0.02144618 0.017582402 0.016666805 -0.12583275
000350 5b 1b 14 3d 90 72 0b 3d bc 52 1e be 8b 5f 25 be
       0.0361589 0.034044802 -0.15461248 -0.16149728
000360 e2 56 0c bb 18 4f bf bc 93 1d e9 bd c3 e8 5e 3d
       -0.002141409 -0.023353145 -0.11382594 0.054421198
000370 fe 09 8a 3d 2a 3a bc 3c e9 55 27 bd fa 4d c5 bd
       0.06740187 0.022976954 -0.040853415 -0.096340135
000380 9e ce 36 bc 32 8b 1f bd 03 ef 09 3b 4d 4e ae bc
       -0.01115766 -0.038951106 0.0021047003 -0.021277571
000390 70 ea 64 bc 28 20 49 3d 53 ef c2 bd 7f a6 dc bd
       -0.01397191 0.049102932 -0.09518304 -0.10773944
0003a0 ff b7 a7 bc a9 80 a3 3d 39 81 87 3c 35 41 c8 3c
       -0.020473478 0.07983524 0.01654111 0.024445156
0003b0 3c 07 95 3d 7b 28 18 3e 36 63 2a bd 3e ca 27 3d
       0.072767705 0.14859192 -0.04159852 0.040964358
0003c0 14 cb 89 3d 75 40 40 3d 3d af 53 3d 35 ed b8 3d
       0.06728187 0.04693647 0.051680792 0.09029619
0003d0 b7 ef d9 bd fd 9e e7 bd 0b f3 09 3d 28 71 04 bc
       -0.10641425 -0.113096215 0.03367905 -0.008083619
0003e0 dc 59 cd 3c 74 1d 5d 3d 5b fa ee bd 7d b4 3c 3d
       0.025067262 0.053983167 -0.11668845 0.046070565
0003f0 58 11 df bc 76 6b 08 3d b3 99 40 bd 27 40 a1 3d
       -0.02722995 0.033305608 -0.04702158 0.07873564

encoder.0.bias f4 [12]
000000 f5 8c 13 be b7 3b 3a 3e 55 89 be 3e ee 1b b8 3d
       -0.1440924 0.18186842 0.3721415 0.08989702
000010 44 38 d6 3e 73 a5 a5 3e 3b 6e d3 3d 25 ef ad bd
       0.41839802 0.3235279 0.10323759 -0.08492879
000020 1a 13 83 bd 2c ca 65 3e c5 5e 4d 3e 7a 1a 9a 3e
       -0.06400128 0.22440404 0.20055683 0.30098325

encoder.2.weight f4 [15, 12, 6, 6]
000000 9b 72 75 bc 59 cd 1a 3d 07 4a 35 3d 23 86 f8 3c
       -0.014980937 0.03779349 0.04426005 0.030337399
000010 44 fc 41 bb b8 a2 ac bc 68 58 10 3d c0 ad 7f 3c
       -0.0029599825 -0.021073684 0.03524056 0.01560539
000020 21 21 4e 3c 32 6a b9 bc 42 d3 14 bd aa b5 37 bc
       0.012581141 -0.022633646 -0.036334284 -0.011212746
000030 de 2f 3a bd 14 1c 3d 3d a6 a1 71 3c b4 b5 72 bb
       -0.045455806 0.046169356 0.014748013 -0.0037034573
000040 54 42 a5 bc e3 b7 7c 3c 70 99 6c bc 64 7f 34 bc
       -0.02017323 0.015424701 -0.014440879 -0.0110167
000050 ae 25 29 bc ba 91 1f bd 81 d9 2f 3c 1e a0 19 3d
       -0.010323925 -0.038957335 0.010733009 0.037506215
000060 0a 9c fa 3c b4 db dd bc fc 02 fc 3c b2 1f a1 3b
       0.030591983 -0.027082302 0.030763142 0.0049171085
000070 51 58 46 bd 77 0f 98 bc 61 a7 0b bd 6c 1b 1d bd
       -0.04842407 -0.018562062 -0.03409517 -0.03835623
000080 58 55 b2 3c bf c8 38 3d 1e 66 c1 3b 73 26 0a 3d
       0.02176921 0.04511332 0.005902066 0.033728074
000090 59 bb 00 bd 27 74 87 bc ca 5f 18 3d 58 fe a9 3a
       -0.03142867 -0.016534878 0.037200727 0.0012969477
0000a0 08 67 41 3c 7f f3 2d bd f4 07 d4 bc 9d 19 29 bd
       0.01180435 -0.042468544 -0.025882699 -0.041284192
0000b0 8b 0a 50 bc e0 76 3b bd 78 38 25 bd a8 c4 e8 3c
       -0.012697826 -0.045767665 -0.040337056 0.028414086
0000c0 3b e1 c6 bc 2c 02 66 bd d0 c7 24 3d f4 45 e0 3b
       -0.02427732 -0.056154415 0.04022962 0.0068442766
0000d0 34 fb c0 3b 54 86 94 3c c4 44 d9 bc fa aa b1 3c
       0.0058893207 0.018130459 -0.026522048 0.021687973
0000e0 cb 4a 01 bd c8 b9 d6 bc 14 64 a0 3c bb 7a 6e bc
       -0.03156547 -0.026211634 0.019578971 -0.014555628
0000f0 9a e1 af 3c 49 da 2b bd fb bc 0c bd 37 73 d3 bb
       0.02146988 -0.04195622 -0.034359913 -0.0064529437
000100 ec 77 86 3c cc fc dd bc b0 68 53 3c 3c 79 13 bc
       0.016414605 -0.027098082 0.012903377 -0.0090010725
000110 9c 8b 4e bd 4a ba 99 3b 62 8d 72 bc 18 d9 7f 3c
       -0.05042611 0.004691397 -0.014804216 0.015615724
000120 ae e7 82 3c 15 dc 27 3c 68 02 24 bd af 93 34 bd
       0.015979614 0.010245343 -0.040041357 -0.044086155
000130 37 39 00 3d 82 a0 db bc 82 b7 10 bd b0 70 c3 3c
       0.031304564 -0.026809935 -0.035331257 0.023857445
000140 37 5a 4a 3d 0c 77 2f 3d 62 8d c8 bc 4f 49 0c bd
       0.04940244 0.04283814 -0.02448148 -0.0342496
000150 4b a5 14 bd b2 95 3f bd 69 b9 05 3d 42 de a8 bc
       -0.03629045 -0.04677362 0.032647524 -0.020613793
000160 26 0e ec bc 88 52 11 bd 1b 92 1c bd 7a 2d 05 bd
       -0.02881534 -0.0354791 -0.038225275 -0.032514073
000170 98 57 91 3c 6d 41 07 3d b9 c2 17 ba 82 08 bc 3c
       0.017741963 0.03302138 -0.0005789209 0.022953276
000180 da e9 fd bb 14 f5 b7 bb a2 56 ba bc e6 70 de bb
       -0.0077488245 -0.0056139324 -0.022746388 -0.006788361
000190 e0 50 59 3c ac 9f d7 ba 12 52 96 3b d9 c8 9b 3b
       0.013263911 -0.0016450784 0.0045874203 0.0047541675
0001a0 bd 5e 0f 3b 8e 1c 93 bc 68 39 9a 3c 79 35 d7 3c
       0.0021876537 -0.017957952 0.018826202 0.026270615
0001b0 01 65 05 bd 8d 2f c7 bc 37 8e e7 3b 3e 90 08 3d
       -0.032567028 -0.024314666 0.007066514 0.033340685
0001c0 5c 8d 2b bd ff a2 a7 bc 10 b3 ba bc 9c ed 85 bc
       -0.041882858 -0.020463465 -0.022790462 -0.016348653
0001d0 19 a7 13 bd 6c ac e0 3a 7b 87 55 3c 0a 39 0e bc
       -0.03604803 0.001714123 0.013032789 -0.008680591
0001e0 cf e2 f3 3c 52 e3 9b bc f9 fc ed 3c 76 e2 cc bc
       0.029771237 -0.019029293 0.02905129 -0.025010329
0001f0 a9 fd 07 3d 2f 5c b6 bc 82 2d b4 bc 28 7e 1e bd
       0.033200894 -0.022260753 -0.021994356 -0.03869453
000200 a1 8f 0f bd 3c bf 3a 3c 23 09 1f bc 1d 14 e6 3c
       -0.035049085 0.011398133 -0.009706768 0.028085763
000210 16 50 0b bd 54 63 bc bc 8f ad 33 3b fe 20 8e 3c
       -0.034011923 -0.022996582 0.0027416681 0.017349716
000220 d0 0a 3c bd 08 f3 56 bb e6 8c 20 bc 5c 8a 2c 3d
       -0.04590875 -0.0032798667 -0.009799218 0.042124137
000230 be 28 26 bb 63 c6 2f bd eb 4a 24 bd f0 12 54 bd
       -0.0025353874 -0.042913806 -0.04011051 -0.051775873
000240 2f ca 6d bb d6 40 53 bd b8 e8 95 3c 26 d5 c2 bb
       -0.003628384 -0.051575504 0.018299446 -0.0059458194
000250 8a 9a 2f bd db a7 76 3c 5e 54 f6 bc 3e 13 25 bd
       -0.04287199 0.015054668 -0.030069526 -0.040301554
000260 4f 89 02 3d 5e d6 e9 bc 0e 72 b8 bc 89 03 23 3d
       0.03186923 -0.028544601 -0.022515323 0.039798293
000270 0e 72 e8 bc 93 d4 0c bd 06 10 fd 3b 8e 91 65 bc
       -0.028374698 -0.034382414 0.0077228574 -0.014011754
000280 d3 25 95 3b d2 cc 11 bd 40 65 e8 3c 53 1e 20 3c
       0.004551628 -0.035595722 0.028368592 0.009772855
000290 a7 79 3d bd b1 3c 4f bd f6 d3 1f bd df 1b 4e 3c
       -0.046258595 -0.05059499 -0.0390205 0.012579887
0002a0 f0 55 c6 3c 12 10 59 bc 25 57 ec 3c 89 ed 0a 3d
       0.0242109 -0.01324846 0.028850148 0.033917937
0002b0 4d af 8c 3c 73 4e e4 3c 1e 20 c5 3b 0f 0c 2f 3d
       0.017173434 0.027869439 0.0060157916 0.04273611
0002c0 42 59 0f 3c c9 fd 62 bd d3 c0 b0 bb 19 14 40 3c
       0.008749308 -0.05541781 -0.00539408 0.011723542
0002d0 e9 43 54 bd 9d d4 45 bd 65 59 a1 3c f3 6a 41 bc
       -0.051822577 -0.048298467 0.019695947 -0.011805284
0002e0 2a 7c 10 3c dd b9 07 3d a4 54 f5 3c fa c5 49 bc
       0.0088186655 0.033136237 0.029947586 -0.012315268
0002f0 be 76 0c bb 86 57 bc b8 00 8a 82 bc 31 41 f7 bc
       -0.002143308 -8.980841e-05 -0.015934944 -0.030182453
000300 02 72 2a bd 6e 43 bf bc 0d a7 2e bc a5 19 a6 bb
       -0.041612633 -0.023347583 -0.010659945 -0.005068975
000310 59 47 27 3d f6 67 fc bc d0 98 a5 3c 1c 6f 52 bb
       0.040839527 -0.030811291 0.020214468 -0.0032109683
000320 ea 10 58 bd ea ff c2 3c cb b5 5b 3c 08 c1 79 3c
       -0.052750506 0.02380367 0.013410042 0.015243776
000330 40 06 b1 3c 4d 85 b9 bc cc 2f c5 3c 4c c9 e9 3b
       0.021609426 -0.02264657 0.024070643 0.007134592
000340 5a 36 d1 bc 61 02 9b bc c8 22 03 3d 64 c6 0f 3d
       -0.025538612 -0.018922033 0.03201559 0.03510131
000350 c8 04 fd 3b 22 58 35 bd ce d2 3a bc 0c 3a d5 3c
       0.0077215172 -0.044273503 -0.011402799 0.026028655
000360 40 4d c0 bc b0 93 70 3c 21 07 3f bd a2 3c 38 3d
       -0.023474336 0.014683649 -0.046637658 0.0449797
000370 8b 5b ae 3c e9 97 01 3d 32 17 9b 3a f8 38 8f bc
       0.021283885 0.031639013 0.0011832474 -0.01748322
000380 c3 ef 68 bc 3f 05 2c 39 54 72 09 3d 64 64 20 3d
       -0.01421732 0.00016405153 0.033556297 0.03915824
000390 78 a3 a9 3c e2 3f c1 bc 36 ac 1f bd 84 53 28 3d
       0.02070783 -0.023590032 -0.038982593 0.04109527
0003a0 db db 86 3b f9 e2 41 bd ef c0 06 bc b4 d9 84 bc
       0.0041155643 -0.0473356 -0.00822471 -0.01621709
0003b0 b6 02 2d bd fe ff 13 bd 29 f3 0f 3c ff d1 fb bb
       -0.042238913 -0.036132805 0.008786001 -0.0076849456
0003c0 6d 6a 29 bd 77 db 2a bd cc 09 ca bc 8f 09 04 bd
       -0.04136126 -0.041713204 -0.024662875 -0.03223568
0003d0 81 f0 b0 bc d2 db 42 bd 2e d5 09 bd d7 53 75 bc
       -0.021599056 -0.04757292 -0.03365057 -0.014973602
0003e0 b1 af 28 3d 30 e3 01 3d d4 f6 be bc d2 4d c5 3b
       0.041183177 0.031710804 -0.023311056 0.00602124
0003f0 f4 51 ae 3c 7f 8f 10 3d 41 2b 7d 3c 0e 17 9b 3c
       0.021279313 0.0352931 0.015452207 0.018931892

encoder.2.bias f4 [15]
000000 c2 c0 5c bc 92 bd 13 3d 6b 28 4e 3e 95 4e 1c 3e
       -0.013473691 0.03606946 0.20132606 0.15264352
000010 93 fb 2f 3e 2d 55 33 bd f2 00 4a 3e a8 7b c3 3c
       0.17185812 -0.0437824 0.19726923 0.023862675
000020 53 ea ff bc 74 14 5e 3e 4b 20 81 bc 18 d5 11 3e
       -0.031239664 0.2168749 -0.015762469 0.14241445
000030 80 18 1d be 8b 0b 4a be 2b b0 60 bd
       -0.15341377 -0.19730966 -0.054855507

encoder.5.weight f4 [128, 540]
000000 40 27 b2 bc 77 e6 40 3d 9b aa fa bb a4 cd 34 3d
       -0.021747231 0.04709479 -0.0076497323 0.044141427
000010 cf 11 3a 3d 41 42 13 bd 4e 2c 3b 3c ac ff 44 bc
       0.04542714 -0.035951857 0.011424137 -0.012023848
000020 26 b8 3f 3d 50 89 79 3c a3 fe 1a 3d a1 cc 18 bd
       0.046806477 0.015230492 0.037840497 -0.037304524
000030 45 3b 58 3c c2 f5 aa 3b 13 cc 8d 3c ee 93 c1 bc
       0.013197725 0.005217285 0.017309224 -0.023630109
000040 59 42 c3 bc 36 42 66 bc 2e 0d a4 3c e2 46 5c bc
       -0.023835348 -0.014053872 0.020025816 -0.013444634
000050 8e 6d d3 bc 5b bd 20 3d 43 50 31 3d 22 f5 04 3d
       -0.025809076 0.039243083 0.043289434 0.03246034
000060 2e c1 a1 3c ec ec fa bc 90 ad 05 bd 03 46 99 ba
       0.019745436 -0.030630551 -0.032636225 -0.0011693839
000070 4c a0 0e bd 4e ec 5c 3c d6 5d 88 3c b2 89 a1 3c
       -0.03482084 0.013484074 0.016646307 0.019718979
000080 1f a3 e2 bc c5 ba 03 bd 35 5e ae 3c c4 61 dc bc
       -0.027665673 -0.03216054 0.021285156 -0.026902087
000090 5d 83 6b 3e e0 8c 65 be 39 f5 ac bd 69 6a c4 bb
       0.2299933 -0.22417021 -0.0844521 -0.0059941304
0000a0 58 18 78 bc 4d e1 13 3e 71 08 2b 3e 1a 83 48 bc
       -0.015142523 0.14441414 0.16702439 -0.012238288
0000b0 42 71 87 bd e3 81 96 bd 1c e0 f7 bd 94 59 03 3e
       -0.06613399 -0.07348993 -0.12103292 0.1282714
0000c0 75 9c ce 3c 1a f4 a8 bd b5 e0 1f bd 0d 62 a7 3c
       0.025221089 -0.08249684 -0.039032657 0.020432496
0000d0 62 ab cf bc 37 8a c2 3d f9 ee 3a 3d eb 88 32 bd
       -0.025350276 0.09499019 0.04563806 -0.043587606
0000e0 29 4f fa 3c 99 d1 79 bd 42 d5 c2 bd 51 7c a5 bd
       0.030555325 -0.060990904 -0.09513332 -0.08080352
0000f0 1a 41 85 3d e3 da 8d 3d c4 c6 2c 3d da c5 39 bd
       0.06506558 0.06926515 0.042181745 -0.0453547
000100 cd 96 27 3d e8 22 bf 3c b4 e1 91 bd 59 ed 15 3d
       0.0409153 0.023332074 -0.071231276 0.036603305
000110 f1 5b 0d bc 98 50 06 be eb 55 69 3d 33 0f 81 3e
       -0.008627878 -0.13116682 0.056966703 0.2520691
000120 d8 5a ea 3b b5 05 8a bd 48 a4 1c be 53 b4 4f bd
       0.0071519427 -0.0673937 -0.15297043 -0.05070908
000130 34 dd 9f 3c e1 f6 bb 3d 64 2b d8 3c 30 bc 31 3d
       0.019514658 0.09177948 0.026387878 0.04339236
000140 03 78 20 3e 1e 07 26 3d 88 38 f7 ba 6f 8b f4 bd
       0.15670781 0.04053413 -0.0018861452 -0.11940657
000150 c8 df aa 3b 94 7f 31 3c 99 4f cc 3b 7d 59 a7 bd
       0.005214665 0.01083364 0.0062350747 -0.081713654
000160 d9 13 8d 3d c2 b3 30 bd 50 a6 14 bd 2a 88 a7 3c
       0.06888551 -0.04314018 -0.03629142 0.02045067
000170 87 89 77 3d c6 bb bc 3b 11 58 aa 3d f6 a4 5b bd
       0.06043389 0.005759689 0.083175786 -0.053624116
000180 de 72 45 3d cb 3c f8 3d ae cd af ba 3f a1 83 bd
       0.04820525 0.1212097 -0.0013412738 -0.064272396
000190 a5 30 4f 3d 2a d8 08 3e aa 64 0c be 18 67 cf bc
       0.0505835 0.1336371 -0.13710275 -0.025317714
0001a0 a9 ce a5 3d 62 ec f1 3d 13 00 0e 3d 07 77 3a 3e
       0.08096058 0.118126646 0.03466804 0.18209468
0001b0 1a 74 50 be 0f 7d 93 3d 64 4e c1 3d aa 23 de 3c
       -0.20356789 0.072015874 0.0943878 0.027116615
0001c0 c8 3e 46 3c a4 00 05 3c 20 29 2d be 99 cb ad 3d
       0.012099929 0.0081178285 -0.16910219 0.08486099
0001d0 07 40 a0 ba c1 74 32 3d 08 27 92 3d 29 a0 b6 bd
       -0.0012226113 0.043568376 0.07136351 -0.08917267
0001e0 b2 13 ea bd d5 c1 80 3d bb 1f 59 bd 02 3e 06 bd
       -0.11429538 0.062869705 -0.053008776 -0.03277398
0001f0 33 53 69 bc ad 2a 16 3c 8b c5 da 3c ce 8f b2 bb
       -0.014241028 0.009165448 0.026705524 -0.0054492718
000200 fc 2a 9c bc c0 15 f5 3d d2 10 62 3d 29 bc c9 3a
       -0.019063465 0.11967039 0.055191822 0.0015391159
000210 f3 33 ca 3d 15 85 91 3d 2f a0 06 3c 32 c9 44 bc
       0.0987319 0.071054615 0.008216902 -0.012010859
000220 4b 96 ce bc cb 19 8e be cd 3e c7 3d c6 53 93 bd
       -0.02521815 -0.27754053 0.09728775 -0.07193713
000230 68 be ba bd 70 6d 10 3e 37 2a 89 3e f1 da 3e bd
       -0.09118348 0.14104247 0.2679002 -0.046595518
000240 50 c1 88 3d c3 8a f5 bc d0 86 28 3c 8a 83 0a bc
       0.066774964 -0.029973393 0.010286048 -0.008454213
000250 c9 0c f2 bc 2b 12 21 3e 73 73 0a 3d 2b 0c 83 bd
       -0.029547112 0.15729587 0.033801507 -0.06398805
000260 23 03 c4 bc 88 de 8b bd 63 72 c1 3b a9 8f 10 bc
       -0.023927277 -0.06829554 0.0059035285 -0.008823314
000270 78 06 ab 3d 66 57 4f bb 9e bc 8a bc 47 28 87 bd
       0.08350843 -0.0031637787 -0.016935643 -0.06599479
000280 16 e2 92 3d 6e 67 f7 3d 24 54 15 bd 88 aa d6 bd
       0.07172029 0.120802745 -0.036457196 -0.10481745
000290 eb 0c cb bc 19 31 48 3d bb 3a e2 3c a6 1d 74 3d
       -0.024786433 0.04887495 0.027615895 0.059598587
0002a0 59 58 f5 3c 64 dd 40 bd 2f bb 0d be 4e cf 9e bd
       0.029949354 -0.047086135 -0.13840936 -0.07754384
0002b0 ba 9b 2e 3d 33 3b ed 3d 89 2b 71 3b 66 1d 2b bc
       0.04262898 0.11583557 0.003679963 -0.010444021
0002c0 b1 24 de 3c 21 a1 8d 3c 2f 88 85 3d f3 5f 4a 3e
       0.027117105 0.017288746 0.065201156 0.19763164
0002d0 ea 61 78 3c fe fd fe 3b f9 4a c1 b9 0f 51 36 bc
       0.015160063 0.007781743 -0.00036867688 -0.011127724
0002e0 30 e4 56 3a 78 d0 80 3c e6 9c a8 3c 54 52 5c bd
       0.0008197455 0.015724406 0.020582628 -0.05378945
0002f0 c3 09 ae bc f1 d8 d5 3c c6 ae 6b 3d 3e 64 fd bc
       -0.02124489 0.026104422 0.057539724 -0.030931588
000300 74 e4 ca bc b4 f1 42 bb 5e f4 40 bc e9 63 8e 3c
       -0.024767138 -0.0029746117 -0.011777012 0.017381625
000310 14 97 18 3d 28 6b 6e 3c 95 5e f3 bb d0 16 0a bd
       0.037253454 0.014551915 -0.0074270465 -0.033713162
000320 4d 48 58 bc e4 c8 71 3d f8 ad 45 3c 0d af b5 bc
       -0.013200832 0.059029475 0.012065403 -0.022178197
000330 a4 79 6d 3c 4f 91 d5 bb 30 d4 8d 3a 0a f6 45 bb
       0.014494333 -0.0065175663 0.0010820683 -0.0030206465
000340 2a 0e 60 3d ae b2 ea 3b c7 34 fe 3c 14 39 29 3d
       0.054701008 0.0071624136 0.031031026 0.0413142
000350 fe b2 f6 3c 60 0a 86 bc 7a 21 57 3c 52 d7 81 ba
       0.030114647 -0.016362369 0.01313054 -0.0009906089
000360 a0 11 84 3e cc b6 e6 bd 6f a0 a6 3c f8 85 f4 3c
       0.25794697 -0.112653345 0.020340173 0.029849038
000370 21 72 70 bc 54 16 13 be 7a 3c 17 3e f0 20 36 bd
       -0.014675648 -0.14363986 0.14769164 -0.044465005
000380 c7 83 80 3d 10 df 96 bd d3 ec 37 3b 40 27 9a bd
       0.062751345 -0.073667645 0.0028064742 -0.075270176
000390 30 31 73 bc b5 be 7a 3d f5 48 a8 3c cb 3e 80 3d
       -0.01484327 0.06121703 0.020542601 0.06261977
0003a0 69 b5 53 be 6e ef 68 3b 97 6a 80 bd d4 a2 eb 3d
       -0.20674671 0.0035543102 -0.062703304 0.115056664
0003b0 55 a7 5f 3b 09 28 5c 3e 4a 60 59 bd 2b 8a 60 bd
       0.0034126837 0.21499647 -0.053070344 -0.054819267
0003c0 c0 48 86 bd de 42 65 3d 02 b2 f2 3d 2b ec ea bc
       -0.06556845 0.055971973 0.118503585 -0.028677067
0003d0 a2 c7 a0 3c 48 84 10 bd 3e 3a d1 bd cf fe fe bd
       0.019626442 -0.035282403 -0.10216187 -0.12450945
0003e0 51 93 66 bc e1 3c db bd ca d0 d6 bd 76 5c 07 be
       -0.014073209 -0.10704971 -0.10489042 -0.13218865
0003f0 b5 c3 ef bc 5a 59 c4 3c d5 f1 1e 3d bd 09 62 3c
       -0.029268125 0.023968387 0.038804848 0.013796267

encoder.5.bias f4 [128]
000000 6d 74 11 3d 08 16 c0 3d f5 fc 32 3d 87 0a 17 bd
       0.035511423 0.09379202 0.04369827 -0.036875274
000010 e7 59 0f bd 22 ba 17 3e 0f 96 c9 3d e6 6d 89 bc
       -0.034997847 0.14817098 0.098430745 -0.016776036
000020 a8 fa 1a bd be 29 14 bd 82 7a 8b 3d 76 a4 ce 3c
       -0.0378367 -0.03617262 0.06810476 0.025224905
000030 4c 4d c2 3d ac 2a a1 bc b1 b3 c4 bc 75 ab 54 3c
       0.094873995 -0.019673668 -0.024011465 0.012980332
000040 32 68 40 bc f0 d6 0c bc 41 79 b9 3d c7 6b dc 3d
       -0.011743592 -0.008596167 0.090563305 0.107627444
000050 63 46 6b be d0 f4 0c be 22 a8 66 3d b7 2a c2 3d
       -0.22976069 -0.13765264 0.056312688 0.094808035
000060 e3 3b 19 bd 67 c2 3d 3e 24 db 07 3a 80 5a 97 3d
       -0.037410628 0.1853119 0.0005182496 0.073903084
000070 1c fa ab 3d e6 77 ab 3c 9e 92 26 bd 66 a8 a5 3d
       0.08397314 0.020931195 -0.04066717 0.0808876
000080 37 76 28 bc 0b c2 d4 3d ff b9 bf 3c 80 ad 24 3d
       -0.010282091 0.10388573 0.02340412 0.040204525
000090 ec a3 d2 bb 62 e5 8e 3c 11 5b 94 bb e2 d5 af 3d
       -0.0064282324 0.017443363 -0.0045274575 0.08585717
0000a0 68 c8 23 3d 14 39 18 bd 83 5a 69 bd 39 92 bf bc
       0.039986044 -0.03716381 -0.056971084 -0.023385154
0000b0 53 47 3e 3e 9a 27 a0 bd f4 a5 0a bd 53 59 10 3e
       0.18581896 -0.078200534 -0.03384967 0.14096574
0000c0 a4 9d b3 bc 6f 15 31 be 68 08 e9 bc 94 95 2f 3e
       -0.021925755 -0.17293333 -0.028446391 0.17146903
0000d0 96 2b 22 3e e0 6e 3d 3e b5 63 fb 3a 3f 76 e8 bd
       0.15836939 0.18499327 0.0019179495 -0.11350679
0000e0 99 16 3b 3e cb ec 83 bb 5a f5 48 bc e5 83 48 3e
       0.18270339 -0.0040260307 -0.012265528 0.19581564
0000f0 91 92 c3 bc e2 14 0a be c2 2d 52 bd 67 93 c3 bc
       -0.0238736 -0.13484529 -0.05131317 -0.023873998
000100 00 30 30 bc 0b a6 c9 bd 68 3b cf bd 2d e4 f7 3b
       -0.010753632 -0.09846123 -0.10118753 0.0075650425
000110 ad ad 2f 3d d2 01 53 bc 9f 0a 6b 3d 1f 94 4d 3b
       0.04289024 -0.012878852 0.057383176 0.0031368805
000120 0b 40 13 bd 05 3f 34 3e 40 f7 5c be f1 af e9 3d
       -0.035949748 0.17602165 -0.21578693 0.11410511
000130 3d 62 14 bd e4 da 35 bd 97 ac e1 3d 53 fe de b9
       -0.0362265 -0.044398203 0.11019247 -0.00042532626
000140 fb 9e aa 3d 6c 61 36 bd b5 ba eb 3b cb 7e 19 bc
       0.08331104 -0.044526502 0.007193888 -0.009368609
000150 47 a9 b4 bc 1d 52 f0 bd cc f3 bc bc a2 06 39 3e
       -0.022053374 -0.11734412 -0.02306547 0.18068936
000160 b6 48 d7 3c 15 66 0b 3e 5e 1a 01 bd 5c bd c9 3b
       0.026279788 0.1361316 -0.031519286 0.0061566066
000170 6c 04 29 3d cf 14 25 bc 1e 35 60 bd 61 ee 50 bd
       0.041263983 -0.010075762 -0.054738156 -0.051008586
000180 10 59 f6 3c 1d a0 97 3c 4c 76 73 3b 1b 27 21 be
       0.030071765 0.018508965 0.0037149368 -0.15737574
000190 b3 75 e4 3c 3b b0 11 be fd 2b fa bb d8 d7 cd 3d
       0.027888155 -0.14227383 -0.0076346383 0.100509346
0001a0 d5 ff 26 bd 99 14 5b bd 75 5b 20 3d ed c3 0c 3c
       -0.040771324 -0.05348644 0.03914972 0.008591634
0001b0 d1 ad d8 3b 2a 1e 51 3d 86 57 a3 3d 8c b2 0d bb
       0.0066125174 0.051054157 0.07975678 -0.0021621315
0001c0 0a 98 04 3d f6 85 20 3e 5f 5c 77 3e 5a 1b 5a 3c
       0.03237156 0.15676102 0.2415633 0.013312185
0001d0 d0 89 22 3e 93 d0 0e bd d4 8f a6 3c a2 04 17 3d
       0.15872884 -0.03486688 0.020332254 0.036869653
0001e0 b1 6f 00 bd 9c c4 13 3d a0 01 1d 3e e6 e8 93 bc
       -0.031356517 0.036076173 0.15332651 -0.01805539
0001f0 57 45 10 3e ce c5 14 3d e7 02 bd 3d 73 53 42 bc
       0.14088951 0.036321454 0.09229069 -0.011860716

decoder.0.weight f4 [540, 128]
000000 9c d2 a1 bd 1d fd b9 bc b1 c7 fd bd 8b 87 97 bd
       -0.07901499 -0.022703702 -0.12391604 -0.073989
000010 f2 d3 a8 3d 60 7e 73 bd c3 82 aa 3d 54 9a 9b 3d
       0.0824355 -0.059446692 0.08325722 0.07597795
000020 f3 a2 99 3c 36 33 12 bd 96 e6 50 3d 56 d4 bb 3d
       0.018754458 -0.03569337 0.051001154 0.09171359
000030 3a 31 9c bc 3c 65 22 bd c6 a6 88 bb 0b e3 9b 3c
       -0.019066442 -0.039647326 -0.0041702716 0.019029161
000040 e4 e1 b3 3c 4a 16 d7 bd d7 0f 98 3d be f1 ec 3e
       0.021958299 -0.10502298 0.07424896 0.46278185
000050 65 f7 8d 3d cc 08 2e 3d 5d 1c 97 3d 54 e8 27 3e
       0.069319524 0.042488858 0.07378457 0.1639722
000060 28 15 22 3d 56 4a 99 be f5 81 c9 3c b6 70 fb bd
       0.039570957 -0.29939526 0.024598101 -0.12277357
000070 34 42 9d be d5 70 74 3d 25 a7 a2 3d 13 b4 e1 3b
       -0.3071457 0.059677918 0.079420365 0.0068879216
000080 e7 ab 37 3d b3 c8 94 bd b7 e3 cd 3d cc 68 66 be
       0.044841673 -0.07264843 0.10053199 -0.22500914
000090 06 82 f4 3d da ed 23 3e fe 8d 88 bd ee 4f 0e bd
       0.119388625 0.16008702 -0.06667708 -0.034744196
0000a0 db 9f 11 3e a2 1c 14 3e aa 8b 8b 3d 0b cb 14 3b
       0.14221136 0.14464048 0.06813748 0.002270403
0000b0 13 be cd 3d 6a 3e a1 3c 6d 38 c6 bc d6 20 bc 3d
       0.100460194 0.019683082 -0.024196828 0.091859505
0000c0 3b 69 3d 3e 03 4f 54 3e e8 2d 55 bd 7a 82 ac 3e
       0.18497173 0.20733266 -0.052045733 0.33693296
0000d0 c8 be cd bc 7a 5d 15 3e a4 f7 63 bd 07 88 9c 3d
       -0.025115386 0.1458644 -0.05565609 0.07643133
0000e0 6b f6 24 be a6 d2 48 3c a6 c7 c2 bc e8 26 89 3e
       -0.16109626 0.012257254 -0.02377684 0.26787496
0000f0 4e 6f 87 3c f0 e1 bb 3e d9 d1 cb 3c 98 b5 84 3c
       0.016532566 0.36695814 0.024880337 0.016199872
000100 9a 40 24 3d ab 02 df 3d 95 dd 8b 3e ea ba 9f 3d
       0.04010067 0.10889181 0.2731749 0.07799323
000110 be ae 1c 3c 12 3f 04 bc 8b ec 96 bd 63 12 c1 bd
       0.009563146 -0.008071678 -0.07369336 -0.09427335
000120 52 ab 65 bd 5c 56 0d be 14 2e 9b 3c 83 0f 62 3d
       -0.056071587 -0.13802475 0.01894287 0.055190574
000130 7a 62 14 bd c8 bf a6 bd 7e 15 55 bd 7f 46 3a 3d
       -0.036226727 -0.08142048 -0.05202245 0.045477387
000140 8d 86 85 3e 60 37 60 3d 79 ff ca 3d 14 0b 6e 3d
       0.26079217 0.05474031 0.09912009 0.058116034
000150 cf 9b c2 3d 9b d4 db bd 04 19 88 bd 3b 33 13 3c
       0.095023744 -0.10733911 -0.06645396 0.008984382
000160 6a 66 9d 3d d4 71 65 3e f1 c3 38 3d 09 ed 88 bc
       0.076855496 0.22406703 0.04510874 -0.01671459
000170 54 4f 4b 3d 3b 17 2f bd 36 5a f9 bb 97 13 10 3d
       0.0496362 -0.042746764 -0.007609631 0.035174932
000180 0a 97 74 3e d8 f5 ad 3d 2d d6 fa ba cf 81 1c bd
       0.23885742 0.084941566 -0.0019137316 -0.038209733
000190 11 37 50 3d 63 44 2d be 44 21 cf 3c 42 74 1b be
       0.050833765 -0.16920619 0.025284417 -0.15181068
0001a0 b9 d4 46 3c fb 70 ce bc 98 d1 56 bd 38 61 67 3b
       0.012135678 -0.025200358 -0.052445978 0.003530575
0001b0 d1 3c 31 3c 12 04 4c 3e 62 66 26 3d bd 7a 62 3e
       0.010817722 0.19923428 0.040624984 0.22117133
0001c0 6f 55 b5 3d 5f 35 75 3e 97 e4 49 3e 3e ce 28 bd
       0.08854186 0.2394614 0.19716106 -0.041212313
0001d0 4e 85 93 3e 9d 22 a3 bd e3 33 1a bd 6b b4 cb 3c
       0.2881264 -0.07965586 -0.03764714 0.024866303
0001e0 9f 74 7a bd 90 0a 1c 3e 3a 8c 45 be 74 cd d5 3c
       -0.061146375 0.15238404 -0.19291773 0.026098944
0001f0 28 b5 3a be cc 84 99 3e 60 08 42 3e 81 4f 26 3d
       -0.18233168 0.29984128 0.18948507 0.040603165
000200 e8 8d 09 3b 1d f0 88 3d fc 59 02 3e ea 2e 5f 3d
       0.0020989124 0.06686423 0.12729639 0.0544881
000210 65 04 a0 3d 20 71 71 bd 63 c8 93 3d 2c 76 9a 3d
       0.07813338 -0.058945775 0.07215955 0.07542071
000220 d6 d8 d6 3b c0 71 a3 bc 42 37 cc 3d 0d f0 d4 bc
       0.0065566106 -0.019951701 0.09971477 -0.025993371
000230 34 1e b4 3d 1a 78 4f bd c8 0f 93 bd df ae 41 3c
       0.08794823 -0.050651647 -0.071807444 0.011821478
000240 15 6a 15 3d 7c 6b b6 3d 00 7a 6b 3c 7c 15 b8 3d
       0.03647812 0.0890722 0.014372349 0.08988473
000250 43 a9 9c bd 0a a8 c9 3d 19 ff c1 3d d5 30 16 be
       -0.076494716 0.09846504 0.09472484 -0.14667065
000260 6d 24 ec bc c4 9e 20 be 3d b0 60 3d a3 84 a9 bd
       -0.028825963 -0.15685564 0.054855574 -0.082772516
000270 cf 66 b6 3c 0d 49 a3 3c 17 0e a3 3d e4 40 4f 3d
       0.02226582 0.019932294 0.07961672 0.050598994
000280 c9 d6 90 3d c4 dd 80 3d a8 2c 03 3e 33 59 29 3d
       0.07072217 0.062922984 0.12810004 0.041344833
000290 cf b7 31 3e a9 05 e5 bd 84 17 b5 3c 4a 74 95 3e
       0.17355274 -0.1118272 0.02210594 0.29190284
0002a0 5b ab 9d bd d4 e2 08 3e ce e5 9b 3d f9 4d d7 bc
       -0.07698699 0.13367778 0.07612191 -0.026282297
0002b0 64 2e c2 3c 9c 97 6e 3d f6 1c 49 3d 61 2a 02 3d
       0.023703761 0.058250055 0.049099885 0.031778697
0002c0 cf 1e ac bc 9f 94 ea 3b e1 86 33 3c 93 d4 23 3e
       -0.021010784 0.0071588303 0.010957451 0.1599906
0002d0 68 e7 ee 3d 2a f6 50 3d e0 c5 85 3d e5 aa 3e 3e
       0.11665231 0.05101601 0.06531882 0.18619879
0002e0 ed da 9b bc 45 b3 bd bc 49 58 c0 bb 14 cd ca 3c
       -0.01902529 -0.023156771 -0.0058698994 0.024755992
0002f0 be 70 bc 3d bc e9 41 3e eb ac 1b 3d c6 5b 02 bd
       0.09201191 0.18936819 0.038006704 -0.031825803
000300 35 c5 0a bd 1d 81 ad 3d f7 6a c8 bd 24 d9 91 bc
       -0.033879478 0.08471892 -0.09786027 -0.017803736
000310 d2 de 0b 3c 7f 36 3e 3c 1c 67 3d bd 9e 1c 84 3d
       0.008537011 0.011609673 -0.04624091 0.06450771
000320 a5 13 42 3b 79 d1 12 be 0e 53 05 3c b7 c8 8f bd
       0.002961376 -0.1433772 0.008137478 -0.07020705
000330 4b 9c 4a 3c 11 f2 3b bd 6f 95 8b 3c 12 17 da bb
       0.012366365 -0.04588515 0.017039029 -0.006655582
000340 12 2d bc 3d 8d fc 38 bd a3 cd 15 3e ed bf c4 ba
       0.09188284 -0.045162726 0.14629225 -0.0015010812
000350 3e d4 9a 3c a9 b4 c0 bd 05 15 88 3d 2b 5d 40 bd
       0.018900033 -0.09409458 0.06644634 -0.046963852
000360 9a 2c 8f bb 63 a4 cc 3d 99 88 11 3d bf 2d 90 bd
       -0.0043693306 0.09992292 0.03553066 -0.070399754
000370 0f aa e6 3b ee e0 7e bd f9 24 c2 3c 9a 6b 20 bd
       0.0070393155 -0.06222623 0.02369927 -0.039165117
000380 ae fa 04 3e fa 1e 74 3d ef fe a9 3d 57 41 49 be
       0.12986252 0.059599854 0.08300578 -0.19653831
000390 3e 6d bf 3c 25 31 4b be 04 77 00 bd fd 16 e2 bd
       0.02336752 -0.19842966 -0.031363502 -0.11039541
0003a0 a0 f6 68 bb 5b 18 58 bd c6 ec 05 be f2 f8 78 bc
       -0.003554739 -0.052757602 -0.13078603 -0.015196072
0003b0 e0 31 2d 3c f5 a8 db 3d a1 83 ce 3d 74 cd 45 be
       0.010570973 0.10725585 0.100837 -0.19316655
0003c0 06 f3 ae bc 1f 9d 75 3e 12 1e d5 bb e6 b2 b6 bc
       -0.021356117 0.23985718 -0.006503829 -0.022302102
0003d0 26 b0 10 3d e8 0d 26 be a7 4c 9c 3d af cc 3a bd
       0.03532424 -0.16216242 0.07631808 -0.045605358
0003e0 b9 58 0b 3b 7a 37 e6 bb a5 03 c2 bd 91 0b 81 3d
       0.00212626 -0.0070256563 -0.094733514 0.06301034
0003f0 ca 57 2d bd da 71 af 3d 73 e0 eb 3d ec 54 bf bb
       -0.04232005 0.08566637 0.1151742 -0.005838981

decoder.0.bias f4 [540]
000000 8b ca de 3d cc 90 50 bd 4f 32 75 3d 3c a5 9b 3b
       0.10878476 -0.05091934 0.05986243 0.004749922
000010 7a 58 d3 3c 79 14 a7 3c d8 d8 90 3c 31 55 81 bc
       0.025799025 0.020395504 0.017681524 -0.015787693
000020 0c 0c 89 bc c7 0e 80 3d 2d c4 aa bd 38 8a f9 bb
       -0.016729377 0.062528186 -0.08338199 -0.007615354
000030 2e 7f fa 3d b0 86 69 3d 57 da ad 3d 3e 03 33 be
       0.12231289 0.057013214 0.08488911 -0.17481706
000040 ac a6 c3 3c 27 fa e7 3a 0c 7b cb bd 30 99 a1 bd
       0.023883186 0.0017698453 -0.09935579 -0.07890546
000050 8f 85 c7 bc b6 ea bc bc 97 5c 7b 3c 11 4c 49 be
       -0.024355678 -0.023061138 0.015341899 -0.19657923
000060 41 69 44 3c ed 68 8a 3d e6 71 08 3d 7b 9c 21 bc
       0.011987985 0.06758294 0.033311747 -0.009863968
000070 66 21 82 bb 7f 3b e3 bd e2 b9 d5 3d ef 21 d4 3c
       -0.0039712666 -0.11095332 0.10435845 0.025895087
000080 38 3f 6e 3d 0b cc ac 3d 90 2c 1a 3d d8 0d 8e bd
       0.05816576 0.084373556 0.037640154 -0.06936234
000090 53 7a be bc 47 a5 c7 3d 9a 3c d5 3b 0f 0f 38 bc
       -0.023251688 0.09748321 0.0065074684 -0.011234059
0000a0 7f 7f 05 3e a6 09 27 3e 49 0c 1c bc b1 bd 02 bd
       0.13036917 0.16312274 -0.009524413 -0.031919185
0000b0 db 33 a0 bd f0 a7 6d bd 47 e6 ea 3c 27 52 c1 3d
       -0.07822391 -0.058021486 0.028674258 0.094394974
0000c0 01 9d e0 bd 92 06 1c 3d 5b 0a 93 3d f6 b8 e9 bc
       -0.10967446 0.038092203 0.071797095 -0.028530579
0000d0 a5 ef 14 bd d8 ec be 3c d7 94 85 bd 17 90 3f 3d
       -0.036361355 0.023306295 -0.065225296 0.046768274
0000e0 c3 48 92 3d 81 94 88 bd f6 f5 1e 3e 2f 86 9b bc
       0.071427844 -0.0666895 0.15523514 -0.018984882
0000f0 84 13 86 bc 2b d9 85 3e e7 7f 57 bb 6b 45 70 3e
       -0.016366728 0.2614225 -0.0032882632 0.23463981
000100 60 6e f7 3d c9 75 8d 3d cf d1 02 be 70 b8 ff 3c
       0.12081599 0.06907231 -0.12775348 0.031215876
000110 4f 49 0b 3e 07 ff 11 3e de a7 99 bd ec cb e9 ba
       0.13602184 0.14257441 -0.07502721 -0.0017837263
000120 23 b2 f5 bd 60 3d d4 bd 6a c7 1b 3d 73 91 c9 bd
       -0.119968675 -0.10363269 0.038031973 -0.09842195
000130 04 1a 63 bd be 2e 13 bd da f0 3a bd 47 4c 99 3c
       -0.055444732 -0.03593325 -0.04563985 0.01871313
000140 f4 d6 ce bc 9c 5a 0b 3d 3d 9f 88 3e b3 b5 3a 3d
       -0.025248982 0.03402196 0.2668399 0.045583438
000150 50 1c 27 3e bb 47 b3 bd 2d df 9a bc 85 70 84 bd
       0.16319394 -0.08753916 -0.018905247 -0.06466774
000160 dc 45 dd 3d cc 96 2a bd 49 59 39 3d 29 b7 2a bc
       0.1080434 -0.041647717 0.045251165 -0.010419645
000170 06 0d 93 3d 84 9b 8b 3d 21 0f 89 3e ea 22 0d 3e
       0.071802184 0.068167716 0.26769355 0.1378285
000180 51 12 6d 3b 3b 8b 64 bd 30 7d 32 3d ec 01 cb bd
       0.0036174248 -0.055796843 0.04357642 -0.09912476
000190 b1 7a 7d bd e2 27 82 3d 9f 42 34 3d c8 38 bd 3a
       -0.061884586 0.06355263 0.044008847 0.0014436478
0001a0 fd 74 28 3e 28 e0 87 b8 80 26 81 3d f5 0a 06 be
       0.16450877 -6.479054e-05 0.063061714 -0.13090117
0001b0 8d 5a d0 3d d0 60 b8 3d ad 20 4a 3e 4f d3 a1 bd
       0.10173521 0.090028405 0.19739027 -0.07901632
0001c0 e1 b6 da bd 57 15 c9 bb 84 af c2 bb 61 48 25 3d
       -0.10679413 -0.006136577 -0.0059413332 0.04035223
0001d0 39 8a 46 3e 67 ff 59 bd b3 e7 00 3e 59 83 7e 3e
       0.19388665 -0.053222086 0.12588386 0.24854793
0001e0 da 25 58 bd 06 ba 0b 3e bc c3 05 3e 06 65 9f 3d
       -0.052770473 0.13645181 0.13062948 0.077829406
0001f0 c6 ed 60 bc b1 60 42 3e 13 e8 07 3e 39 c4 36 bd
       -0.013728565 0.18982197 0.13272123 -0.044620726
000200 95 e4 12 3d 52 9c 19 bc 27 1b 70 3d 6c 4c 72 3e
       0.035862524 -0.009375649 0.058619644 0.23661965
000210 ca 77 9b 3c 34 f9 fd 3d 11 c8 c1 3d bf 69 bd bd
       0.018978018 0.12401047 0.09461988 -0.09248685
000220 ab c9 fb 3b d5 74 4c 3e e1 dc 7e bd 67 f8 73 bd
       0.007683953 0.19966443 -0.062222365 -0.059563067
000230 0c 1e e3 bd bb cd b4 bd 55 94 76 3d ee 89 04 3e
       -0.11089715 -0.088283025 0.060200054 0.12943241
000240 36 8a e9 3e fc 94 26 3e 78 4f 8c 3e ea f1 bc bd
       0.4561326 0.1626777 0.2740438 -0.09225829
000250 db cc 8f bd b4 22 55 3e 96 35 00 3f c8 18 5a 3d
       -0.07021495 0.2081402 0.50081766 0.05324629
000260 76 ce 55 3d a4 d5 84 3e 0e fc ba bd f1 45 b6 bd
       0.05219885 0.25944245 -0.09130107 -0.08900059
000270 80 db f3 bc 41 26 c4 3d ea 4d 91 3e 37 1e 8a 3d
       -0.029767752 0.09577609 0.28379756 0.06744044
000280 f7 a5 37 bd ff ba 26 3e 86 e3 50 3e 3e be 49 3c
       -0.04483601 0.16282271 0.20399293 0.012313424
000290 60 da df 3e 9b 5c 85 3e 17 20 29 3e 10 95 b9 3d
       0.43721294 0.26047215 0.16516148 0.090616345
0002a0 d2 01 04 3f 34 de dd 3d a7 30 dc 3d 70 ff d4 3d
       0.5156528 0.108333975 0.10751467 0.10400283
0002b0 91 27 67 3d 4f 73 84 3d 87 f8 d3 bd dd 8d 19 3e
       0.056434218 0.06467306 -0.10350137 0.14995523
0002c0 8d 73 74 3d cf cf 68 3c 87 50 7e bd 2c df fe 3d
       0.05968051 0.014209702 -0.062088516 0.124449104
0002d0 14 ae 80 bd f2 f0 b2 bd b6 c2 7f bd f4 2d 46 3e
       -0.06283203 -0.08737363 -0.06244155 0.19353467
0002e0 17 30 ee 3d 6b bd cc 3d 9e b9 04 be 0e 35 d5 bc
       0.11630266 0.09997066 -0.12961432 -0.026026275
0002f0 c8 6c dc bd 4b 36 a6 bc e1 c6 f2 bd 40 99 ca 3a
       -0.10762936 -0.02028956 -0.118543394 0.0015457049
000300 2a 8a d9 bc d4 21 c3 3c d7 22 d3 bd 93 f2 a6 bd
       -0.02655514 0.023819841 -0.103093795 -0.08151736
000310 06 8d ab bd bb f4 c0 bd 4e 1f bd bd 00 aa aa 3d
       -0.083765075 -0.09421679 -0.092344865 0.08333206
000320 08 d8 88 bd a2 71 a9 bd dc 20 11 be 45 9d 06 bd
       -0.0668183 -0.08273627 -0.14172691 -0.032864828
000330 7f 66 bb bd 80 74 08 bc a5 7a 5b be 7e e5 8a bd
       -0.09150409 -0.008328557 -0.21433504 -0.067820534
000340 25 d1 4d be 2a a2 e9 bd 3c bf 12 bd 63 52 44 bd
       -0.20099314 -0.114078835 -0.035826907 -0.047930133
000350 69 35 46 be b5 37 b2 3b 0d ed 5c be b4 62 f8 bc
       -0.19356312 0.0054387697 -0.21574803 -0.030320503
000360 63 b3 81 3e 39 e5 8a be d9 c4 6b be e9 9d 89 bd
       0.25332174 -0.27128008 -0.2302431 -0.06719572
000370 fe b0 c6 3e 12 34 75 3e 91 ff 60 3e de 7f 1e bd
       0.3880691 0.23945644 0.21972491 -0.038696162
000380 81 3c 22 bd 02 72 91 3c 1d 71 73 bd 7e 9c f3 3e
       -0.039608482 0.017754558 -0.059434045 0.47580332
000390 b8 5a 06 3e c0 01 fa 3e 1b 2f cf 3d 47 cb 3d bd
       0.13120544 0.4882946 0.101164065 -0.04633644
0003a0 6f 8e 28 bd 04 69 75 3d 27 8e a5 bd fd 41 c9 3e
       -0.04115146 0.059914604 -0.08083754 0.39308158
0003b0 62 07 4a 3e d1 de f5 3d b9 6c c4 3d d8 43 3c 3e
       0.19729379 0.120053895 0.0959105 0.18385255
0003c0 0b af cf 3d ab 1f e4 3d 5a 8f 9a 3d 4d 16 80 3d
       0.10140809 0.11138853 0.075468734 0.062542535
0003d0 66 be d2 3c 86 4a e0 3d bf 6e 0f 3e 04 c1 8a 3d
       0.025725555 0.10951714 0.1400709 0.06775096
0003e0 4f 9f b2 bc 65 95 b2 bd c6 8f 86 3e 16 ed dd 3d
       -0.02180448 -0.08719901 0.26281565 0.10836236
0003f0 0b 6e 67 3e eb af 1a bd 83 99 c9 bd 0e ea 72 bd
       0.22600572 -0.037765425 -0.09843733 -0.059305243

decoder.3.weight f4 [15, 12, 6, 6]
000000 de 0d 4a 3e ad 29 1d 3e fe 7a 4a 3e db cf 92 3e
       0.19731852 0.1534793 0.1977348 0.28674206
000010 22 a5 17 3e 89 04 6b 3e 6e b2 68 3e 49 16 04 3d
       0.14809087 0.22950949 0.22724316 0.032247815
000020 fd 71 b7 3e 4f 23 85 3e 3f e3 37 3e ba 4b 21 3e
       0.35829154 0.260035 0.17957781 0.15751544
000030 a9 9c de 3d 1a be ff 3d bc 79 b7 3e cc b7 35 3e
       0.10869724 0.12487431 0.35835063 0.17745894
000040 69 1b 35 3e df 95 9e 3d 51 0f 01 3e 0a 1c 07 3d
       0.17686237 0.077434294 0.12603499 0.032985725
000050 54 eb 93 3d ad a6 cb 3d 8b b0 92 bc 32 cf cd 3d
       0.0722262 0.099439 -0.017906448 0.10049285
000060 0e 3d c6 3d 97 4e c0 bd 65 93 dd bd 3c 1d c0 bd
       0.09679614 -0.0938999 -0.10819129 -0.09380576
000070 d0 b1 0c be 2b 05 e8 3c 60 94 4c 3e 54 93 c8 3d
       -0.13739705 0.028322777 0.19978476 0.097937256
000080 51 7c 19 3e 51 83 3e 3e c2 2c 93 3d 02 f4 07 3e
       0.14988829 0.1860478 0.07186271 0.13276675
000090 38 51 3b 3e 58 7f 70 3e fd fb 6d 3e 38 2d 5b 3e
       0.18292701 0.23486078 0.23240657 0.21403968
0000a0 db 3c f3 3d 87 19 f2 3d d8 95 1b 3e 52 63 69 3e
       0.11876842 0.11821275 0.1519388 0.22791794
0000b0 a0 44 6d 3e 10 04 46 3e 79 b0 ed 3d 0c ce ad 3d
       0.2317071 0.19337487 0.11605925 0.08486566
0000c0 fd be 11 3e 29 7a 32 3e 49 36 44 3e 45 09 40 3e
       0.14233012 0.17429413 0.19161333 0.18753536
0000d0 d5 2a b0 3d 2c 37 95 3d 2e b3 73 3d dd 4f b5 3d
       0.086019196 0.07285914 0.05949705 0.08853123
0000e0 c7 96 98 3d b1 d9 8d 3d b8 2f 22 3c 41 b8 22 3d
       0.074506335 0.06926287 0.009899072 0.0397265
0000f0 6b 30 4e 3c 19 22 31 3c 1d 50 1e bd c2 07 53 bd
       0.012584786 0.010811352 -0.03865062 -0.05152107
000100 ae 67 54 bd 96 ab 23 bd 8d fc 99 3d 82 3e 86 3d
       -0.05185669 -0.03995856 0.07518873 0.06554891
000110 b3 f3 58 3d 73 93 69 3d 10 91 f0 3c b9 09 2d 3d
       0.052966785 0.057025384 0.029366046 0.0422456
000120 71 66 3b bd 21 48 1b 3d af 1d 9a bc 3b 02 b7 bc
       -0.045751993 0.037910584 -0.018812982 -0.02233993
000130 bb 25 67 bd 2d 18 36 bc b7 30 99 3c ff 47 bf 3d
       -0.056432467 -0.011114162 0.018699987 0.09339904
000140 8f ee 27 bd f5 67 c4 bc 9a 58 c4 bd 63 ab ee 3a
       -0.04099899 -0.023975352 -0.09587212 0.0018209036
000150 4f 91 db 3c 77 8e d2 bc 54 6e db 3c 6f bb 52 3c
       0.026802687 -0.025702698 0.026786007 0.01286207
000160 57 f7 5a bd 44 fc d8 bc 4f e1 0d be 8f 9b 16 be
       -0.053458538 -0.026487477 -0.1385548 -0.14707778
000170 21 a5 2f be f5 d1 1c be a0 c7 0d be 39 26 33 be
       -0.17152835 -0.15314467 -0.13845682 -0.1749505
000180 55 9b 05 bd 95 60 c3 bd ed ec a1 bd d6 70 a5 bd
       -0.03261884 -0.09539906 -0.07906518 -0.08078162
000190 93 9b 84 bd a1 79 7d bd 38 03 07 be d6 a4 af bd
       -0.06474986 -0.061883572 -0.13184822 -0.08576362
0001a0 ce 76 0c be c1 83 20 be bf 90 d6 bd 7b 5a d3 bd
       -0.13717195 -0.1567526 -0.10476827 -0.10319992
0001b0 db b2 db 3d 79 fe 1e 3e d9 5b 25 3e c5 97 1c 3e
       0.10727473 0.15526761 0.16148318 0.1529227
0001c0 e8 e2 a0 bc 9a 15 5a bd 2c 56 25 3e 13 83 0c bd
       -0.019639447 -0.053243257 0.16146153 -0.03430469
0001d0 ae 65 58 be 61 3c 02 bd b4 01 77 be 72 9a 52 bd
       -0.21132538 -0.031795863 -0.24121743 -0.05141682
0001e0 8b f0 c8 3d 13 f8 2f 3e db 63 48 be 2b 1d fb 3d
       0.09811505 0.17184477 -0.19569342 0.12261423
0001f0 17 94 d3 3d 42 74 a3 bc 18 ac e1 3d fd 01 26 bc
       0.1033098 -0.019952897 0.110191524 -0.01013231
000200 79 83 6e be 77 22 20 bd c7 b2 2c be 1c 95 e0 bc
       -0.2329234 -0.03909537 -0.16865073 -0.02741485
000210 34 fe 06 bd ea 84 48 be 8f f9 8d 3d 20 a7 9c be
       -0.03295727 -0.19581953 0.06932365 -0.30596256
000220 f8 21 26 bb 3f 32 e9 3c 1e 12 10 bc d5 c1 f0 3c
       -0.0025349837 0.028466342 -0.008793382 0.029389301
000230 8a 41 b2 bd 42 e3 d2 b9 e8 b3 5a bc 43 47 2c 3c
       -0.08703907 -0.00040223642 -0.013348557 0.010515037
000240 00 18 96 bc 9f 00 ab 3d 35 24 d3 be d2 ac 85 3e
       -0.018321991 0.08349728 -0.4123856 0.26108414
000250 98 34 85 3c 09 bc 78 3e c2 7b 5a bd 56 95 39 3e
       0.01626043 0.2429048 -0.05334068 0.18123373
000260 4b bb 5e 3d b8 f4 b3 3e 5d 49 8e 3d 1b 86 1f 3e
       0.054377835 0.35147643 0.06947587 0.15578501
000270 d1 00 d4 3c 37 ab 33 3c ff 00 46 bc 1b b5 96 3d
       0.025879296 0.010966114 -0.012085198 0.07358762
000280 f5 69 bc bd 61 ec b9 3b 26 54 a9 bc dc f9 1e be
       -0.09199897 0.0056739305 -0.020670008 -0.15525001
000290 9e 66 c1 bd 7e 48 85 bd e0 1d 2d be 52 3b 19 be
       -0.09443401 -0.065079674 -0.16905928 -0.14964035
0002a0 f9 0f 51 bd 84 2b 82 bd 7e c2 1f be af 5e 08 be
       -0.051040623 -0.06355956 -0.15601537 -0.13317369
0002b0 1f a0 f1 bd a6 2f ef bd 08 57 3f bc 23 89 07 be
       -0.11798119 -0.1167901 -0.011678465 -0.13235907
0002c0 fc 9f d8 bd d5 e5 33 be 18 aa 11 be b6 46 df bd
       -0.105773896 -0.17568143 -0.14225042 -0.10902159
0002d0 d8 42 8a 3d 8d 3b 86 bc 5b 02 97 bd b2 08 68 bd
       0.06751031 -0.016385818 -0.07373496 -0.056648917
0002e0 ac a4 14 bc 93 f3 33 3d 5c ea de 3d 11 96 b9 3b
       -0.009072464 0.043933462 0.10884544 0.0056636413
0002f0 4f bb 74 bd 43 c9 19 bd ae 5f bd 3c 9a de 56 3d
       -0.059748944 -0.037545454 0.023116913 0.052458383
000300 d5 66 b0 3d df 43 8a ba 20 51 d2 bc 82 b7 a7 3b
       0.08613364 -0.0010548792 -0.025673449 0.0051183114
000310 4f 53 c0 3c 71 aa 2b 3d d1 34 19 3e df 04 b9 3d
       0.023477225 0.041910592 0.14961554 0.09034132
000320 a2 59 09 3e d6 58 1c 3e d2 ce 26 3e 48 47 a5 3d
       0.13413098 0.15268263 0.16289833 0.080702364
000330 ac a1 0c 3e b4 42 f3 3d 01 c0 1f 3e 50 79 2e 3e
       0.13733548 0.11877957 0.15600587 0.17038465
000340 a5 fa 06 3e 0a 47 8a 3d dc 76 9e 3d 0c df 74 3d
       0.13181551 0.06751831 0.077375144 0.059783027
000350 15 11 8f 3d 29 5f 8d 3d 09 81 3f 3d af 34 fb 3c
       0.0698568 0.06902916 0.046753917 0.03066477
000360 1a 3e 60 bb c4 cc 79 bd cc 03 c7 bd 79 f5 a6 bd
       -0.0034216703 -0.060986295 -0.09717521 -0.08152289
000370 6a da 65 bd ed 69 f4 bc 3c 49 87 3b 62 45 72 bd
       -0.0561165 -0.029835666 0.0041286033 -0.0591482
000380 a0 12 0e be d4 bf 0e be 43 ca ae bd 4b 7f 59 bd
       -0.13874292 -0.13940364 -0.08534672 -0.05309991
000390 63 80 37 bd f0 a3 cb bd 2a de 0c be ae 3d d6 bd
       -0.044800173 -0.09943378 -0.13756624 -0.10460983
0003a0 f4 a2 96 bd 26 62 22 bd 33 33 cc bb d0 76 48 bc
       -0.073552996 -0.039644383 -0.0062316894 -0.012235358
0003b0 09 c2 5e 3a a5 99 cd 3c c8 d3 5a 3d 25 f2 93 3c
       0.00084975414 0.025097677 0.053424627 0.0180598
0003c0 7d 37 6a bc dc 65 0a 3d ec 56 25 3d 56 e1 9f 3d
       -0.014295456 0.033788547 0.0403661 0.07806651
0003d0 b6 fc 73 3d d4 2b b0 3c 4c 46 40 bb 07 e3 34 3c
       0.059567176 0.021505274 -0.0029338775 0.011040456
0003e0 d8 a4 25 3b 8e 7b 56 3c 79 1b 60 bb f0 1f e2 bc
       0.0025275256 0.013090981 -0.0034196062 -0.02760312
0003f0 f2 87 40 3d c5 bf b7 3c 84 77 72 bc 8f 03 01 bc
       0.047004648 0.02243031 -0.014799003 -0.007874384

decoder.3.bias f4 [12]
000000 1e 6e 62 be 8a 0a 23 3d ab 5e 8c 3e d3 40 4e 3d
       -0.22112319 0.039804973 0.27415976 0.05035479
000010 37 d2 87 bd 36 4f 3b 3e be 8d b6 bc 39 e4 0f 3e
       -0.06631892 0.18291935 -0.022284385 0.14051904
000020 7c f9 d4 be b5 71 1c be 58 0a c0 3c 43 1d af bd
       -0.4159659 -0.15277751 0.023442432 -0.08550503
