models/autoencoder3.pt (torch, 59215 bytes, 8 tensors)

encoder.0.weight f4 [12, 3, 4, 4]
000000 a6 b3 83 be d6 98 64 bd b4 0f 90 bc 0f a4 1d bd
       -0.25722998 -0.05580982 -0.017585613 -0.038486537
000010 d7 12 cd 3d 79 3e 08 3e bf a5 8f 3d bd fa e6 bd
       0.10013359 0.13305081 0.070140354 -0.11278293
000020 af 72 da 3b 4a e6 3e bd 18 2f 27 be a8 e4 28 be
       0.0066665034 -0.04660634 -0.16326559 -0.16493475
000030 45 25 8e 3e 2c d5 25 3e 02 e6 4a 3e d1 6b c7 bb
       0.2776281 0.161946 0.19814304 -0.0060858508
000040 21 a4 50 bd 2e 1e 9c 3d 97 ec e2 bd 98 d8 37 3c
       -0.050937776 0.07622944 -0.11080282 0.011221074
000050 d1 3f 63 3e eb 59 eb 3c ac 03 b9 bd 0a fa 0b be
       0.22192313 0.0287294 -0.090339035 -0.13669601
000060 e3 73 2a 3e 41 87 03 3e 4e 14 ad bd df 74 52 3d
       0.1664577 0.12844564 -0.084511384 0.05138099
000070 50 c6 ea 3d 52 9d 1a 3e 76 e5 84 ba 85 ae 84 3d
       0.11463606 0.15099075 -0.0010139185 0.064785995
000080 a5 c7 6f bd 27 4d 24 3e 1d fd 92 3d 5f 52 5a 3e
       -0.058540005 0.16045056 0.07177184 0.21320485
000090 3d bd 70 3d c7 76 05 bd 73 24 20 be 99 54 c6 bd
       0.05877422 -0.032583978 -0.15638904 -0.096841045
0000a0 c0 c3 34 3e e3 a4 79 3e f2 0c f8 3d 85 56 99 3c
       0.17652798 0.24379306 0.12111844 0.018718014
0000b0 b6 78 43 be 86 e9 33 be 6b 63 98 be 58 f8 21 bd
       -0.19089016 -0.17569551 -0.2976335 -0.03954348
0000c0 15 21 6f bd bb 5c d3 3c ad b0 81 bd d4 44 21 bd
       -0.05838116 0.025801053 -0.06332526 -0.03937228
0000d0 03 32 71 be a7 48 f2 3c 96 14 f4 bc 20 76 55 3e
       -0.23554234 0.029575659 -0.029794972 0.20845842
0000e0 d7 b4 8c be f7 13 d8 bc fa 96 fd bd eb c1 36 3e
       -0.2748172 -0.026376707 -0.12382312 0.17847411
0000f0 8f 1a 56 bd a5 ed ad 3e 3f bc 67 3d 14 f9 a0 3e
       -0.052271422 0.3397037 0.05657601 0.31440032
000100 9b 46 e4 3d af ea 53 3c e8 63 22 be 9a 80 4d 3e
       0.111462794 0.012934371 -0.15858424 0.20068589
000110 27 a4 7d 3d 7e 50 f8 3d 53 12 7e be ad f9 51 3e
       0.061924126 0.12124728 -0.24811678 0.205054
000120 45 dd c6 bd c5 a7 45 3e 5d cd 00 be 4e cd 9d 3d
       -0.097101726 0.1930228 -0.1257834 0.077051744
000130 c7 e2 29 3e b9 98 72 3e 55 bf 90 3e ed 7b f5 3e
       0.16590415 0.23691072 0.28270975 0.4794611
000140 9a a4 25 3e 71 f1 cd 3d 89 bb 1b bc 66 71 25 3e
       0.16176072 0.10055817 -0.009505161 0.1615654
000150 c1 a3 ff bc c9 7a aa 3c ec 02 46 bd 76 d2 48 3e
       -0.031206014 0.020810502 -0.04834263 0.19611534
000160 a2 97 01 be de 43 50 bd d3 17 04 be f6 9d b8 3d
       -0.126555 -0.050845973 -0.12899713 0.09014504
000170 93 be 77 3d fd ad 77 3e 8c 90 4f bd 09 58 d9 3e
       0.06048448 0.24187465 -0.05067496 0.42449978
000180 1d ec b7 3d 99 3a a4 3d df 77 d6 3d b6 32 79 be
       0.08980582 0.08018989 0.10472082 -0.24335751
000190 77 cd 2d bc 59 bf e5 bc dc e3 6d 3e 8d 3f ae 3c
       -0.010608069 -0.028045343 0.23231453 0.021270538
0001a0 fa 3d 1f be 84 2b 13 be 0b 1d a2 bd ec 6d 23 be
       -0.15550986 -0.14372069 -0.07915696 -0.159599
0001b0 24 0f 44 bc fd aa fb bd 16 f0 e1 3d 4e 0e 5f 3d
       -0.0119665 -0.12288473 0.11032121 0.054457
0001c0 1d f7 a2 3a 48 79 40 3d d7 2a 8d 3d 85 e1 b1 bd
       0.0012433265 0.046990663 0.06892937 -0.086855926
0001d0 5c 12 04 bd 7c 74 87 3d b0 c4 4b 3d 17 6d f7 bd
       -0.03224407 0.066140145 0.049748123 -0.12081354
0001e0 f1 c8 93 bd 24 c2 f4 bd 34 2d 6d 3c 30 77 a1 bd
       -0.07216061 -0.11951092 0.014476109 -0.07884061
0001f0 74 de 1a bd 78 73 d5 bd 42 99 bd 3d 49 16 a3 bd
       -0.037809804 -0.104224145 0.09257747 -0.07963235
000200 a8 0d a7 3e 7a 80 9f 3e 83 6a e3 3d f8 19 fd 3e
       0.32627606 0.31152707 0.111043 0.49433875
000210 91 e6 24 3d 92 0b 33 be 60 93 ff bd 38 ba ce 3d
       0.040258948 -0.17484882 -0.124792814 0.10094112
000220 97 d8 45 3b b1 c5 aa 3b c5 ed b5 bc cb 59 91 3e
       0.0030188912 0.005211555 -0.022208104 0.2838882
000230 a7 84 14 be 5d 2d f8 bd bf 80 84 be 99 d4 a9 3e
       -0.14503728 -0.12118027 -0.25879475 0.33170012
000240 1f 69 cf bb b2 cd 1f be f0 d8 ff bd b3 f8 56 be
       -0.00632967 -0.1560581 -0.124925494 -0.20993309
000250 29 e1 13 3e 37 ae 2e 3d 5d 83 40 3e e0 27 b7 3e
       0.1444136 0.042646613 0.18800111 0.3577261
000260 7c 5e 62 3e 8f 61 39 bd 0f d9 28 3e 17 9c 41 3e
       0.22106355 -0.045259055 0.16489051 0.189072
000270 b3 0f 76 3e 82 ad 38 be 1e 8f 54 bc 7a ee 94 3e
       0.24029426 -0.18034938 -0.012973575 0.29088193
000280 6b 31 42 be b4 47 03 3d f4 72 0b be d1 96 ad bd
       -0.18964164 0.032050803 -0.1361807 -0.084760316
000290 76 29 c9 3d b9 fb e9 bd 59 09 ab bd e1 19 09 3b
       0.09822361 -0.114249654 -0.08351392 0.0020919966
0002a0 b8 d8 cf 3d 10 c5 3c 3d 9a 72 ab bd af 76 19 3e
       0.10148758 0.04608637 -0.08371468 0.1498668
0002b0 1b fd f0 3a 7c 28 44 be cf 9f 46 be b0 80 a0 bd
       0.0018385978 -0.19156069 -0.193969 -0.07837045
0002c0 54 fe 85 3e c4 a8 32 3e 53 d5 1f 3d ca 6d 06 3e
       0.261706 0.17447191 0.0390218 0.13127819
0002d0 ff 45 ba bd a1 9c a9 bd a7 99 47 be 06 70 ce bc
       -0.09095382 -0.08281828 -0.19492207 -0.025199901
0002e0 59 b0 2f 3e 6b 25 a5 3d 1a 2a 48 bd 15 01 5e 3d
       0.17157115 0.080637775 -0.048868276 0.05420025
0002f0 85 b1 90 3c db ee 2f bd 35 b0 0f be 4d 47 83 3e
       0.017662773 -0.0429524 -0.14032061 0.25640336
000300 c0 5c 73 bc 89 56 2e 3d 4a e8 8b 3d 85 7f 74 3e
       -0.014853656 0.042562995 0.06831415 0.2387677
000310 48 bf b7 bc be 1f 1d bd c1 62 04 3e f0 73 78 bc
       -0.022430077 -0.03836035 0.12928297 -0.01516436
000320 d2 f3 b9 3d bf 26 86 bd 28 77 0e bd 69 73 b2 3d
       0.09079708 -0.06550359 -0.034781605 0.08713419
000330 23 57 1d be 84 5d e2 bd 70 1d af bb f8 ec d3 bc
       -0.15365271 -0.11052993 -0.0053440854 -0.025869831
000340 ca f3 48 be d1 72 0c be b4 c0 e1 bd 37 03 09 bd
       -0.19624248 -0.13715674 -0.11023083 -0.03345033
000350 ee 2f 80 3d d3 8d ef 3c 8b d3 1b 3e 63 6f 37 3d
       0.06259142 0.029242432 0.15217416 0.04478396
000360 ac 45 5b bd 35 58 80 bd 3e 46 f6 3d 7f 7f c0 bc
       -0.05353324 -0.06266824 0.120251164 -0.023498295
000370 d5 31 29 bd 2d 33 df 3d a4 e9 bc 3c c0 23 87 3d
       -0.04130729 0.10898433 0.023060627 0.06598616
000380 6a 8c 15 be 6c 9a b0 3c 33 78 a0 3d 4d d8 09 bd
       -0.14604345 0.02155801 0.07835426 -0.033653546
000390 30 8c f2 3c cb 0b 3b 3e 14 85 8a 3e 59 e6 6f 3d
       0.029607862 0.18266217 0.27054656 0.058569286
0003a0 e6 c9 bc 3d 23 05 55 3d e2 ee 36 3e 5c 0c e7 3d
       0.092181966 0.052006852 0.17864564 0.11281654
0003b0 8c ac 88 be 61 67 ac 3d ae 3d bd 3d 64 dd b2 bd
       -0.26694143 0.084181555 0.0924028 -0.08733633
0003c0 e6 c1 6a bc a3 28 63 3d f8 73 c2 3d 5c 14 86 be
       -0.014328456 0.055458676 0.094947755 -0.26187408
0003d0 12 61 1d 3d c7 6a 45 bd 7d a5 64 bd ee e5 b2 bd
       0.03842265 -0.048197534 -0.055821884 -0.08735262
0003e0 81 c6 c7 3d b3 58 35 3d aa c8 ba 3d 60 ab 08 be
       0.097546585 0.044274043 0.09120305 -0.13346624
0003f0 c4 f3 b8 be c7 38 a3 bd aa 8d d2 bd 3f 23 c0 be
       -0.36123478 -0.07969814 -0.102809265 -0.3752689

encoder.0.bias f4 [12]
000000 c6 6f 7d 3e 86 2d 8d be 9e 4a 96 3e 51 36 82 bc
       0.2474967 -0.27573794 0.29353803 -0.01589504
000010 49 93 7c 3d b4 24 00 3f 64 ba a0 3e 73 5f 01 3e
       0.0616639 0.50056005 0.31392205 0.12634067
000020 c6 a2 7f 3e 62 a0 28 bd 92 4c 08 be e9 d1 9d 3e
       0.24964437 -0.041168578 -0.1331046 0.3082421

encoder.2.weight f4 [15, 12, 6, 6]
000000 53 3d 37 3e f9 52 b8 bd e6 81 ff bd 2b f7 10 3b
       0.17894487 -0.09000201 -0.12475948 0.002211998
000010 70 d8 c3 3d f3 cb 0c bd 11 de 13 bd bb c3 a8 bd
       0.095627666 -0.03437419 -0.03610045 -0.082404576
000020 e2 b2 f9 3c aa 46 fd bc d3 27 28 bd ed 21 d3 bd
       0.030480806 -0.030917484 -0.041053604 -0.10309205
000030 07 ee ba 3d be 79 92 3d a9 f2 3f 3e 0d bf 37 3e
       0.09127431 0.07152127 0.18744911 0.17943974
000040 03 4f a3 3c 3c 85 3e bc 4c b3 f9 3c 5c f6 92 bd
       0.019935137 -0.011628445 0.030481003 -0.071758956
000050 33 d7 03 be 5a a8 d8 bc 7e 6e dc 3b e1 73 22 be
       -0.1287506 -0.026447464 0.006727039 -0.15864517
000060 3b 59 33 3d b1 cf ac 3d a6 95 ad bd fd 5f fd bb
       0.04378627 0.084380515 -0.08475809 -0.00773239
000070 20 68 03 3e c1 ad 9c bd c4 24 2a 3e 3c 31 2d 3e
       0.1283269 -0.076503284 0.16615587 0.16913313
000080 6b 29 55 3d 5d d8 45 3d e5 83 d7 3d 1a 6e 2c 3d
       0.052041452 0.048302043 0.10523204 0.04209719
000090 69 88 8f be 5a 33 1f bd 31 9b 0b 3c 55 57 0e 3e
       -0.2803376 -0.038867332 0.008520887 0.13900502
0000a0 32 40 71 bc 29 7f c2 bd 83 3b 22 bd ac 51 90 3c
       -0.014724778 -0.0949691 -0.039607536 0.01761707
0000b0 95 a5 d6 bd a3 83 65 bd 50 d9 a0 bd b8 42 aa bd
       -0.10480801 -0.05603374 -0.07853949 -0.08313507
0000c0 b7 d3 c9 bd f6 72 95 3d a1 e2 a5 3d 25 58 10 3e
       -0.098548345 0.07297318 0.08099867 0.14096124
0000d0 34 61 8b 3d 61 b4 ec bb e4 e6 87 bd 54 6b 47 bb
       0.068056494 -0.0072236513 -0.06635836 -0.0030428963
0000e0 79 b7 1d bc 95 d7 90 3c 8f 01 b4 bd 65 60 60 bb
       -0.009626263 0.017680923 -0.0878936 -0.0034237143
0000f0 4b c0 91 bd b1 f1 b7 bd 1f 28 4f bc ea 04 48 bd
       -0.07116755 -0.08981646 -0.012643843 -0.04883281
000100 eb 59 84 bd fb 1e 87 bd 7a d9 13 bd 53 4f 67 3d
       -0.06462463 -0.06597706 -0.036096074 0.056472134
000110 0e 5d 8b 3d b6 0d af 3b 92 d3 93 3c d1 e0 8a bd
       0.06804858 0.0053422106 0.01804522 -0.067811616
000120 d1 bc 7c bd 9e a0 80 be c6 0d d8 bd 58 48 b3 bd
       -0.061703507 -0.2512254 -0.10549502 -0.08754033
000130 55 49 3c bd db 37 a1 bb b3 30 d7 3d 96 ec e7 bb
       -0.045968372 -0.0049199886 0.105073355 -0.007077764
000140 4b 4b 9e 3d 72 b7 90 3e 17 29 76 3e 06 7a b3 bd
       0.07729205 0.28264958 0.24039112 -0.087635085
000150 c8 2c 78 3c 5b 81 30 3e 68 dc a7 3d b3 ff dc bc
       0.015147395 0.17236845 0.08196336 -0.026977396
000160 23 23 f3 bb e0 e8 a8 bd ee ff 24 b9 ee f7 a3 3c
       -0.00741996 -0.082475424 -0.000157356 0.020015683
000170 f2 36 e5 3d c2 2c 8c 3d c9 7a 0f 3e c1 f0 12 3d
       0.111921206 0.068444744 0.14011683 0.035874132
000180 fb bb 1c 3d 43 ee 74 3c ad c3 11 3d e9 1c b2 3d
       0.03826521 0.014949384 0.035587 0.086969204
000190 b9 84 14 3d fe c5 47 bd ec 93 92 3d fe 86 62 3d
       0.036259387 -0.048772804 0.0715712 0.05530452
0001a0 f4 a4 9f bd 16 d4 ed 3d e0 41 ae 3d c9 d0 85 bd
       -0.07795134 0.11612718 0.085086584 -0.06533963
0001b0 2a fd 87 bd 51 84 1d be 24 04 13 3b 5c 99 c9 3c
       -0.06640084 -0.15382506 0.0022432888 0.02460926
0001c0 03 46 2c bd 5c a8 89 bd 85 ca fb 3c ce 06 cc 3b
       -0.042058956 -0.06721565 0.030736217 0.006226397
0001d0 a5 4c 61 3e 16 64 b9 3d 47 28 72 3d 7c e8 20 bd
       0.22001894 0.09052293 0.059120443 -0.039284214
0001e0 d7 f7 b6 3d 8f 83 28 bb f3 25 4b 3e 30 3b 2b 3e
       0.089339904 -0.002571318 0.19838695 0.16721797
0001f0 e7 f0 6b 3d 34 73 7d 3c 7a 0f 36 3c 85 51 a7 bd
       0.05760279 0.015469361 0.011112088 -0.081698455
000200 f6 8a e5 3c e7 90 a0 3d 0e 0a 77 bd b1 13 6d bd
       0.028020363 0.07840138 -0.060312323 -0.057880107
000210 09 32 46 3d 95 1d 3c bd b4 a4 bb 3c 9c 6d 19 3c
       0.04838756 -0.04592665 0.022905685 0.009364512
000220 04 89 7a 3d ad 6a e6 bd 4b 39 cc bc a1 7d 41 bd
       0.061165825 -0.112508155 -0.024929663 -0.04723895
000230 2a 90 e5 3c 3e e8 42 3d 93 bb b5 3c 6d bd 52 3d
       0.028022844 0.047584765 0.022184169 0.05145018
000240 19 1d 08 be f0 35 b2 bd 8e 6c e4 3b 41 04 a3 bc
       -0.1329235 -0.08701694 0.0069709485 -0.01989949
000250 e8 73 0d 3c 82 75 71 3d 1a 95 9a bc 07 37 9d 3b
       0.008633591 0.058949955 -0.018869925 0.0047978195
000260 07 1b c2 3d 87 fe 43 3d 92 22 c3 3d 35 30 ae 3d
       0.09477811 0.047850158 0.09528078 0.085052885
000270 ea bf 3d 3d 0a 79 99 3d 61 1b 53 3d 53 41 9a bd
       0.0463256 0.074937895 0.051539782 -0.07531991
000280 6b 6e 99 3d 5f 1b 50 3d 9c 5c 22 3d a5 a7 71 bd
       0.07491764 0.050807353 0.0396391 -0.05899777
000290 fd ad 00 3e 3a af 85 3d 95 d2 20 3c 0a 7c 12 3d
       0.12566371 0.065275624 0.009815832 0.035762824
0002a0 66 3e 83 3d e1 02 d4 bd 76 8a 27 bc ba 82 87 3c
       0.06408386 -0.103521116 -0.010225883 0.016541827
0002b0 43 0c 87 bd 42 29 99 3d 71 ad f7 3d 05 2a a5 3c
       -0.065941356 0.074785724 0.12093628 0.020161638
0002c0 37 dd 9d bc 68 28 a4 3b 86 06 27 bb fe dc 1e 3e
       -0.019270523 0.0050096996 -0.0025486066 0.1551399
0002d0 57 06 87 3f 43 6d 0a 3f 36 da e5 3c 7b 9d 09 be
       1.054881 0.5407297 0.028058153 -0.1343898
0002e0 6d b4 72 3e 3d dc 25 3b 0f cb 8b bd 9f af cf be
       0.2370164 0.0025308274 -0.0682584 -0.40563676
0002f0 08 fb e5 bd 4c b8 a6 3e 66 80 a6 3e b5 66 86 be
       -0.11229521 0.32562482 0.32519835 -0.26250234
000300 77 dc 76 3e 89 1f 2f bd 63 5b 59 bd bd 78 b3 be
       0.24107538 -0.042754684 -0.05306567 -0.35053053
000310 f8 9a b9 bc cf 4b db 3c 82 f9 ee 3e 6a 2f 1a 3e
       -0.022656903 0.026769547 0.46674734 0.1505715
000320 d7 d0 25 3e d8 cb 89 be a2 75 aa 3e 41 51 c2 3d
       0.16192947 -0.26913333 0.33292872 0.09488154
000330 70 12 ba 3e a9 d8 04 3f 4f 58 02 3f 3e ee 55 3c
       0.36342192 0.518931 0.50916 0.01305729
000340 4c 60 b3 3e 7a 08 ee 3b fc 53 f1 bd d2 b0 0c 3e
       0.35034406 0.007264194 -0.11783597 0.13739327
000350 60 1e c2 be 99 bf ea bc 17 12 d4 bd 94 5b a8 bd
       -0.379138 -0.028655814 -0.10355013 -0.08220592
000360 90 9b 84 3e 5b 5f 65 3e fc 77 0e 3e 58 c1 0b 3e
       0.25899935 0.22399656 0.13912958 0.13647974
000370 69 f5 9c 3d 02 a2 23 3e c2 b6 04 bd 6a 28 cc bd
       0.07663996 0.1597977 -0.032400854 -0.09968646
000380 13 fd e6 bc b9 f4 f6 3c 82 2e 1f 3d cd 44 5b 3d
       -0.028196847 0.03014599 0.038862713 0.05353241
000390 64 f5 84 3d fe 51 7a 3d 17 d1 3a 3e ff 35 a7 3d
       0.06492117 0.06111335 0.18243824 0.08164596
0003a0 6c a1 d7 3b 39 f0 6a 3b c2 aa d3 3d 98 84 ea 3b
       0.0065805223 0.003584875 0.10335304 0.0071569197
0003b0 5e 69 3f 3e 00 06 f9 3d c4 eb 2e 3d c2 29 5b 3d
       0.18692538 0.121593475 0.042705312 0.05350662
0003c0 39 a5 e9 3c 18 b8 83 bc 34 d2 89 3d 95 31 23 3d
       0.028521167 -0.016078994 0.06729546 0.039842207
0003d0 41 44 df bc 58 9d 73 3c 21 ed b3 bc 42 3f 47 bd
       -0.027254226 0.014869057 -0.021963658 -0.04864431
0003e0 33 73 d7 bc e8 86 7f bd 3c 7e bc 3c 46 a7 9f bc
       -0.026300048 -0.062384516 0.023009412 -0.019488942
0003f0 62 fd 81 3e 2d d5 f7 3d d3 bc 01 3e d8 e2 53 3c
       0.25388628 0.12101207 0.12669687 0.012932502

encoder.2.bias f4 [15]
000000 82 5e 4e 3e 0b 9d 5c bd 3c 20 36 3e ea 9a 8c 3d
       0.2015324 -0.053860705 0.17785734 0.06865485
000010 83 c0 d9 3d 6b 75 0f 3e 66 1f 49 3e 76 a9 78 bd
       0.10632422 0.14009635 0.19640884 -0.060708486
000020 9d 39 13 b8 9d f4 94 bd ba 2e ff bd 74 c9 1f bd
       -3.5101188e-05 -0.07273219 -0.12460084 -0.03901048
000030 a7 0e 9f bc 0d 37 f4 3c 11 78 af bc
       -0.019416166 0.029811407 -0.021419557

decoder.0.weight f4 [15, 12, 6, 6]
000000 d4 73 76 bd 90 35 29 be 7c 26 fd 3c 85 dc fd 3b
       -0.060169056 -0.16524339 0.03090214 0.0077472352
000010 79 7c 97 3d 88 af ff 3d 9c b8 ba 3c fd c9 10 3e
       0.07396788 0.12484652 0.022793107 0.14139552
000020 23 d1 a9 3d 12 13 0f 3e 81 03 4e 3d bd 67 02 3e
       0.08291843 0.13972118 0.05029631 0.12734886
000030 d8 f1 24 3c 20 51 3c 3e 37 0a b2 3b 3c 48 cc bc
       0.010067426 0.18390322 0.0054333466 -0.024936788
000040 09 f1 20 3d d2 ce a6 3d 7e 29 0d bd b2 e6 88 bc
       0.03929237 0.081449166 -0.0344634 -0.016711567
000050 32 a5 91 3d 2e ce 87 3b 7f bb bb 3d bb 37 a5 3d
       0.07111587 0.0041444516 0.091666214 0.0806727
000060 f1 28 b0 3d 91 72 1e bb d7 aa 1b 3d 37 c3 76 3c
       0.08601559 -0.0024177174 0.038004722 0.015061191
000070 aa d3 1c 3d 43 fb d7 3d 2d cd 66 3c 0f 63 4b bd
       0.038287796 0.10545971 0.014087004 -0.049655017
000080 df 51 44 3a eb 76 83 bc 82 fa be 3d 15 b2 d1 3d
       0.00074890064 -0.016047915 0.09325124 0.102390446
000090 17 7a b6 3e 62 e2 b0 3e f1 bb 3a 3d 5f 13 a5 3d
       0.35640022 0.34547716 0.04558939 0.08060335
0000a0 89 6f a9 3d 56 e7 91 3d 54 88 23 3e 57 ae a2 3d
       0.08273227 0.07124202 0.15969974 0.07943409
0000b0 ed 24 ad bc e1 d4 bc bc 32 87 d2 3d a5 64 66 3d
       -0.021135772 -0.023050727 0.10279693 0.056248326
0000c0 11 7a 10 3d 77 7d 3a bd 1b 69 7b 3d b1 1a c3 3d
       0.03527266 -0.04552981 0.061379533 0.09526575
0000d0 6b 92 6f 3d 8f 17 ea 3c 84 5c b6 3d 64 0c e9 bb
       0.058489244 0.028575687 0.08904365 -0.007112073
0000e0 6e b1 00 be 3a 9f b4 bd 89 a7 36 bd 2e 39 64 3c
       -0.12567684 -0.088194326 -0.044593368 0.013929648
0000f0 2b 81 cb 3d 45 ce 2a 3e e2 9c 5e bb 94 73 fa ba
       0.09936746 0.16680248 -0.003396802 -0.0019107931
000100 07 a8 9c 3d c7 78 3b 3c bb e3 30 3d 57 36 27 3e
       0.07649236 0.01144237 0.04318593 0.16329323
000110 9d 56 55 3d 08 a8 70 bb da e1 ad 3d 1b 6c c9 3d
       0.052084554 -0.0036721248 0.084903434 0.098350726
000120 9b ab 52 3e 43 8b 7d bf d0 e7 8f 3d 5f 2e f9 bd
       0.20573275 -0.9904062 0.070266366 -0.12167048
000130 84 72 09 bd d4 ba 4f 3e a5 36 17 3e 31 89 af bc
       -0.033556476 0.20286113 0.14766939 -0.021427723
000140 82 4a 82 bb c1 20 b2 3c 32 8e 80 3c 08 16 45 3d
       -0.003976167 0.021744134 0.015692804 0.048116714
000150 6e dc 29 3d 9f d7 c3 3e f0 05 12 be 0a b3 7c be
       0.041469984 0.38250443 -0.14260077 -0.24677673
000160 82 47 60 3c cc d3 f9 bd 7a 17 f4 3b fa b8 4e bc
       0.013688924 -0.121986 0.0074490877 -0.012617344
000170 a4 5a 21 be 01 61 f0 bd 3b 1f bd 3c f2 38 69 bc
       -0.15757233 -0.11737252 0.02308618 -0.014234768
000180 20 d7 db 3d 7f e2 93 3e 10 b7 b3 3d 48 6e 1e 3e
       0.10734391 0.2888374 0.08775151 0.15471756
000190 be 3e c7 3d b5 4d 79 3d 2e 08 d1 bc 1e e2 0a bd
       0.09728764 0.060865123 -0.025516596 -0.03390705
0001a0 a2 73 97 3d d1 08 1a 3c 6a 6d a1 bc 83 3d 5d 3b
       0.07395102 0.009401516 -0.019705493 0.0033758588
0001b0 29 79 fa bd 8b c8 1e bd 70 29 d3 bc 00 15 76 3d
       -0.12230141 -0.03876547 -0.025776595 0.06007862
0001c0 b7 0b e3 bc 4b 3a 93 3d 09 ad e9 3b 90 65 90 3d
       -0.027715547 0.07188853 0.007131223 0.070506215
0001d0 76 8e 95 bd f6 dd 40 bd ff be 5a bd bb a8 4d bd
       -0.07302563 -0.04708668 -0.053404804 -0.050209742
0001e0 90 fc f6 bd f7 2f 97 3d fb db e2 3d 10 5c 2f 3d
       -0.12059891 0.073821954 0.11077114 0.042812407
0001f0 fa 0f 29 3c 75 46 eb bc 7a 59 4f bd 06 01 c2 3c
       0.0103187505 -0.02872012 -0.05062244 0.023682129
000200 e4 47 25 3e ff f9 99 3d 55 aa 94 3c 9a fe 2c bd
       0.16140705 0.07518386 0.018147627 -0.042234994
000210 33 6e d8 bc 65 d7 23 bd b2 08 57 3b 9c a9 21 bd
       -0.026419735 -0.040000338 0.003281158 -0.039468393
000220 3e a2 3e bc 7e 85 ac 3b 2f f4 1e bd ed 4a d5 3c
       -0.011635361 0.005264937 -0.03880709 0.026036704
000230 d2 85 7e 3d 4b 58 ce 3c 6d b6 ec bb 07 66 5c 3d
       0.06213934 0.025188586 -0.0072238953 0.05380824
000240 85 42 e8 bd 57 6b 07 be c5 53 02 3a 80 b1 89 bc
       -0.113408126 -0.1322454 0.0004971589 -0.016808271
000250 37 b4 51 3d 3f d0 70 3d 78 b2 dd b9 61 36 36 3d
       0.051197257 0.05879235 -0.00042285374 0.044485454
000260 fd c8 c4 3c 24 c2 46 3e f5 b0 49 3e 02 57 1c 3e
       0.02402162 0.19409996 0.1969641 0.15267566
000270 81 ee c4 bd af c7 61 3e 76 9a 63 3c d3 83 ca bd
       -0.096158035 0.2204883 0.013891807 -0.09888425
000280 f5 2a 29 bd be 2d b4 bc 43 bf 81 bc c2 ad 9b 3d
       -0.041300733 -0.021994468 -0.015838271 0.07601501
000290 9d 78 1b 3e 5e 79 f0 3d 26 71 21 3e 83 90 a4 3d
       0.15182729 0.11741899 0.15765819 0.08035376
0002a0 1b b5 eb 3c 09 42 97 bd 34 e7 84 bd 3c 9d 27 bb
       0.028772881 -0.07385642 -0.06489411 -0.0025575897
0002b0 57 c3 e6 3b 0a b2 e4 3c f0 b8 3b 3c cb b5 b7 bb
       0.0070423293 0.027916927 0.011457667 -0.005606388
0002c0 b3 d6 96 bd 29 9c 56 bc f0 ee a3 3d a4 9c 84 3d
       -0.073651694 -0.013098755 0.08004558 0.06475189
0002d0 ca f0 5e be b5 19 3f be 15 c0 91 bd 3d b4 08 be
       -0.21771541 -0.1866215 -0.07116715 -0.13350005
0002e0 98 20 92 3b 9f fc d2 3a fc af 68 be c0 4e 09 3e
       0.004459452 0.0016097015 -0.22723383 0.13408947
0002f0 69 05 0a 3e 39 cf 42 3d 50 88 e6 bb 99 39 07 3c
       0.13478626 0.047560904 -0.0070352927 0.008253478
000300 51 c6 c9 3c 37 2b c6 3d 14 3f 3d be d8 b0 b8 bd
       0.024630697 0.09676211 -0.18481094 -0.09018105
000310 26 20 c3 3c e9 e9 ea bb cf 32 4e be 76 46 bf bd
       0.02381904 -0.0071689975 -0.2013657 -0.09339611
000320 0e bb 41 3d 50 f0 27 3d 6b 23 9f 3c 66 6a e0 bd
       0.04729753 0.041000664 0.019426068 -0.10957794
000330 2e 8c c8 bd 1a 9d 83 3d 78 29 43 3d 89 24 24 bd
       -0.09792362 0.06426449 0.04764697 -0.040073905
000340 dd 99 ad 3d bb 0b 61 3d c2 06 c8 bc 68 e7 45 bc
       0.08476613 0.054942828 -0.024417285 -0.012079097
000350 84 84 5d bd d2 3e 09 bd d3 f9 cd 3c d0 a1 6f 3d
       -0.054081455 -0.033507176 0.02514354 0.058503926
000360 9f b6 f0 bd fb d7 1d 3e 8e aa d0 bc bb 31 93 bd
       -0.11753582 0.15414421 -0.025471952 -0.0718722
000370 48 76 90 3d a6 06 f0 bd 42 98 36 bf f3 17 9b 3c
       0.0705381 -0.11720018 -0.71326077 0.018932318
000380 d6 56 27 3e a1 d1 e0 3d 81 35 96 3e 79 d3 88 3d
       0.16341719 0.109774835 0.29337695 0.0668096
000390 c9 2b de bb a4 f7 a0 bd f0 a3 a4 3d 08 f5 d0 be
       -0.006780122 -0.07859734 0.08039081 -0.40811944
0003a0 4b 34 86 3c e1 b1 7e bd 75 e3 01 bf 1b 73 f6 3b
       0.016382357 -0.062181357 -0.50737697 0.007521046
0003b0 69 2a 00 3d 5f 7c 05 3e f2 30 2d 3e b1 df c5 3c
       0.031290445 0.13035725 0.16913202 0.024154516
0003c0 f4 31 77 bc e7 ce f8 3c b7 c1 03 bd b7 29 45 bd
       -0.015087593 0.030372096 -0.032167163 -0.048135486
0003d0 fe 53 d4 3c f6 97 92 bd 48 12 49 be 88 c4 98 3c
       0.025918957 -0.071578905 -0.1963588 0.0186484
0003e0 c0 24 1c be 74 59 ff 3c 40 e4 16 3d 58 6b b5 3d
       -0.15248394 0.031170584 0.03683877 0.08858365
0003f0 0f 58 0c be ee db 33 be 21 de 67 bd 84 6a a8 ba
       -0.13705467 -0.17564365 -0.056608323 -0.0012849127

decoder.0.bias f4 [12]
000000 17 a3 63 bd b8 b5 ed 3d 5d 68 32 3f 3f 88 78 3d
       -0.055575456 0.11606926 0.69690496 0.06067681
000010 7a 46 e9 bd 77 73 35 be e9 32 11 3e a5 9c 0b 39
       -0.113903955 -0.17719828 0.14179577 0.00013314428
000020 4a bc 6a bd 95 8e 33 3f 3a 2d b5 3e d8 65 2d bd
       -0.057308473 0.7013944 0.35386068 -0.042333454

decoder.2.weight f4 [12, 3, 4, 4]
000000 a0 24 10 be 65 88 09 be c9 b3 14 bc f1 fc 8e bd
       -0.14076471 -0.13430937 -0.009076067 -0.069818385
000010 5c 5a 27 3c 0b 8e f5 bd 3f 31 ca bc d9 86 dd 3c
       0.010214414 -0.11989983 -0.024681685 0.02704184
000020 8e 96 fa bd bc 87 94 bd 04 ff b4 3c 43 7d 87 3c
       -0.12235747 -0.07252452 0.022094257 0.016539222
000030 5c a1 0a 3c e8 ce f2 3d 1c 77 c3 3d 87 75 46 bd
       0.008461323 0.118558705 0.09544203 -0.048451927
000040 7f cd 28 bd 35 49 e9 bc bb 07 98 3d a0 b2 db bd
       -0.0412116 -0.02847729 0.074233495 -0.107274294
000050 96 2c c7 3d 7c b7 f3 3c 33 29 c2 3d ac 97 5e bc
       0.09725301 0.029750578 0.094805144 -0.013585966
000060 2c 6e e9 bc 2f 3c b3 3c f7 17 07 3e a1 fd bf 3c
       -0.028494917 0.021879284 0.13192736 0.02343637
000070 47 7c 25 bc 51 a4 c7 3d 25 1a fb 3d 72 94 25 be
       -0.010100431 0.09748138 0.12260846 -0.16169909
000080 43 55 a8 3d 4a 55 1c 3d 2a bd 50 3e 96 ca 8b bd
       0.082193874 0.038167275 0.2038466 -0.068257496
000090 ab 73 4d 3e c4 2d db 3d fb 7b 8e 3e c1 fb 7f 3c
       0.20063655 0.107020885 0.27828965 0.015623988
0000a0 d1 58 1c 3e 5e 7e 21 3e bc f2 b9 3e c7 9a f3 3d
       0.15268256 0.15770862 0.36318004 0.11894756
0000b0 7c c3 e4 3c 1e d4 01 3e e2 c0 5f 3e 5b 16 1a be
       0.027925245 0.12678573 0.21850923 -0.1504759
0000c0 bb bd 6c bc 74 cc c8 bd 03 30 8a be 83 46 da bd
       -0.014449532 -0.09804621 -0.26989755 -0.1065798
0000d0 40 3b 87 3b aa f1 8e be c9 02 ef be 37 91 1a be
       0.004126936 -0.2791875 -0.46681812 -0.15094458
0000e0 9e 93 08 3d 4b 24 29 be 46 8b aa be 61 23 41 3c
       0.033343904 -0.16517751 -0.33309382 0.01178822
0000f0 16 20 8d bb f1 97 9d bd a1 5d 73 be 20 50 9f 3c
       -0.0043068035 -0.07694996 -0.23766185 0.019447386
000100 c0 65 82 3c 2c 9e c9 3c 82 d4 52 be 87 ae 05 be
       0.015917659 0.024611555 -0.20588878 -0.13054858
000110 18 9d d9 3c f6 3c 1a be e9 2e b6 be 4e 63 1d be
       0.026564166 -0.15062317 -0.35582665 -0.15369913
000120 e7 3d ce 3d 72 bd 45 3b df 60 09 be 65 6f f4 3d
       0.10070401 0.0030172733 -0.1341586 0.11935309
000130 40 dc 16 3b 0c d6 62 3d d3 54 6d bd 7c 49 a8 3d
       0.0023019463 0.055379912 -0.057942223 0.08217141
000140 5a ca 94 ba ae 1f 6f 3d 49 72 0e be 29 03 ed bd
       -0.0011351809 0.05837982 -0.13910784 -0.115728684
000150 f4 52 80 3a d6 3a c9 bd d5 8c 9a be 95 96 3d be
       0.0009790347 -0.09825675 -0.3018557 -0.18514474
000160 73 ce 81 3d 21 4b 46 3d 54 70 81 bd 9f c9 f5 3d
       0.06338205 0.048411492 -0.06320253 0.12001347
000170 b2 4a 67 bd e0 bd 3b 3d 09 a3 84 bc ca 8d b5 3d
       -0.05646772 0.045835376 -0.016191022 0.08864935
000180 04 12 aa bd e5 34 f2 bd d6 d6 1e be bf 65 d5 bd
       -0.083042175 -0.11826495 -0.15511641 -0.10419797
000190 37 c2 54 be 5c f4 82 be 2c 48 96 be 23 5b 5c be
       -0.20777212 -0.25577056 -0.29351938 -0.21519141
0001a0 22 21 55 be 83 7e 86 be 7b db a7 be d5 65 59 be
       -0.2081342 -0.26268396 -0.32784638 -0.21230252
0001b0 89 da 0f be 64 81 36 be cc 9b 65 be d4 1e 02 be
       -0.14048208 -0.17822796 -0.22422713 -0.12707072
0001c0 1b 8a f5 bd c7 35 35 be ff 65 52 be c7 17 10 be
       -0.11989232 -0.17696296 -0.20546721 -0.1407157
0001d0 7d 23 86 be fd 90 ab be 73 87 ba be a4 24 89 be
       -0.2619895 -0.33509055 -0.36431465 -0.26785767
0001e0 48 94 88 be 0e d1 ac be a7 35 cd be 16 46 89 be
       -0.2667563 -0.33753246 -0.40079996 -0.26811284
0001f0 06 f8 3f be b9 4f 79 be 7f 26 94 be 39 b6 2f be
       -0.18746957 -0.24346818 -0.2893562 -0.17159356
000200 ae 7a e6 bd 41 98 34 be f3 bb 51 be d6 cd 10 be
       -0.11253868 -0.17636205 -0.20481853 -0.1414102
000210 ac fa 84 be 20 fc af be 9c 6b be be 9f 18 8a be
       -0.25972497 -0.34372044 -0.37191474 -0.2697191
000220 f8 43 85 be 2c ba ad be fb f4 cd be 1d 0a 85 be
       -0.2602842 -0.339311 -0.40225968 -0.25984278
000230 4a 8f 35 be c6 55 73 be 27 71 91 be 0f fb 26 be
       -0.17730442 -0.23763189 -0.2840664 -0.16306709
000240 2d 48 34 3e b6 52 37 3e f5 fc 16 3e 5e f9 5c 3e
       0.17605658 0.17902645 0.14744933 0.21579501
000250 f3 be 8f 3d 8e d7 22 3e 66 ab 84 3e d5 64 70 3e
       0.070188425 0.1590254 0.25912017 0.23475964
000260 4b 5e 85 3d 58 98 28 3e a0 d8 8a 3e 73 6c 3f 3e
       0.065121256 0.16464365 0.27118397 0.18693714
000270 d9 77 3c 3e 48 25 59 3e 53 81 3b 3e 2c 8b 2c 3e
       0.18405093 0.21205628 0.18311052 0.16849965
000280 7f 2a 7d 3d 50 e7 8b bb 16 dd 39 bd e1 74 d3 3d
       0.061808106 -0.004269518 -0.04537686 0.10325027
000290 5a ce 01 be c1 1b d6 bd 97 ef 75 bc a8 7a 1c 3d
       -0.12676373 -0.104545124 -0.015010736 0.03820291
0002a0 c1 47 ee bd 8b 72 61 bd 2b 9d 25 3d 27 f1 39 3c
       -0.1163478 -0.055040877 0.04043309 0.011348999
0002b0 3a f2 ba 3d 0d 33 8c 3d b6 9b 2b 3d f2 e5 9e 3d
       0.09128232 0.06845675 0.041896544 0.07758702
0002c0 81 5c 2d 3e 9f 6e 93 3d f0 bf 36 3d 00 fb 76 3e
       0.16929819 0.07198834 0.04461664 0.24119186
0002d0 55 98 b2 bd 38 35 e9 bd 9a 32 34 bc 6a 67 cd 3d
       -0.08720461 -0.11387104 -0.0109983925 0.1002949
0002e0 d9 9d bf bd a3 b1 9c bd b8 ef a5 3c f6 40 30 3d
       -0.09356279 -0.07651069 0.020255908 0.0430307
0002f0 f3 3c 26 3e 7e 3e e8 3d 6c 95 bc 3d 20 0e 29 3e
       0.16234188 0.113400444 0.092081875 0.16509295
000300 69 e5 5e 3e 08 13 16 3e aa 54 ce 3d 01 6a 91 bc
       0.217672 0.14655697 0.10074742 -0.017750742
000310 2b 5b 87 bc e7 a6 ae 3d 62 ef 59 3d 6e e3 44 be
       -0.016522964 0.08527928 0.05320681 -0.19227383
000320 fc a2 68 bd d2 b6 7f bc d7 e0 86 bd 3e 61 41 be
       -0.05679606 -0.015607553 -0.065858535 -0.18884751
000330 6d 4d dc bd a2 93 32 be 02 e4 42 bd 84 87 86 3c
       -0.10756955 -0.1743913 -0.047580726 0.01642204
000340 7b 85 00 3e d4 cc 0d 3e 25 ac d7 3d ca 63 96 bb
       0.12550919 0.13847667 0.10530881 -0.0045895325
000350 69 d4 44 3d 00 af 1a 3e f3 a3 f5 3d c8 88 87 bd
       0.048054133 0.1510582 0.119941615 -0.06617886
000360 7c a0 93 bd 28 89 68 3d 6b 67 78 3c 69 0f e5 bd
       -0.07208344 0.056771427 0.0151613755 -0.1118458
000370 3b 5f 22 be bf 19 e1 bd c2 fb 43 3c f8 bf aa 3d
       -0.1585664 -0.10991239 0.011961879 0.083373964
000380 19 8b d6 3c ae f6 42 3e f3 a5 db 3d 24 8d 84 bc
       0.026189374 0.19039413 0.10725012 -0.016180582
000390 1e 76 b9 3d 23 bd bf 3e 4d d5 93 3e af 91 9c 3d
       0.09055732 0.37448987 0.28873673 0.076449744
0003a0 4d 00 b2 bb bc e0 ab 3e 84 ab 2a 3e 08 4a 58 bc
       -0.0054321648 0.33569896 0.1666699 -0.013201244
0003b0 d7 7b 13 be b5 d1 40 3d 97 c8 99 3d 1f cd c1 3d
       -0.1440271 0.047074992 0.075089626 0.09462952
0003c0 ed cb 3c be db 76 4b bd f8 99 88 3c d5 5e b1 bd
       -0.18437167 -0.049673896 0.01667498 -0.08660666
0003d0 95 00 a6 3d ac f8 86 3e 80 d9 63 3e 73 ef 6d bd
       0.0810558 0.26361597 0.22250938 -0.058089685
0003e0 69 7d d0 3d 4b 09 35 3e 52 c1 86 3e 93 13 da bd
       0.1018017 0.17679326 0.26319367 -0.10648265
0003f0 81 73 0f 3e 6b 8a 66 3d 8c 03 18 bc 39 14 2c be
       0.14008905 0.05628435 -0.009278189 -0.1680459

decoder.2.bias f4 [3]
000000 c9 ca 87 be 82 b1 2b be c8 8e 95 be
       -0.265219 -0.16766933 -0.29210496
